{"format": "graph-model", "generatedBy": "2.18.0", "convertedBy": "TensorFlow.js Converter v4.22.0", "signature": {"inputs": {"keras_tensor_203": {"name": "keras_tensor_203:0", "dtype": "DT_FLOAT", "tensorShape": {"dim": [{"size": "-1"}, {"size": "224"}, {"size": "224"}, {"size": "3"}]}}}, "outputs": {"output_0": {"name": "Identity:0", "dtype": "DT_FLOAT", "tensorShape": {"dim": [{"size": "-1"}, {"size": "14"}]}}}}, "modelTopology": {"node": [{"name": "ConstantFolding/StatefulPartitionedCall/sequential_1/MobileNetV3Large_1/activation_19_1/truediv_recip", "op": "Const", "attr": {"value": {"tensor": {"dtype": "DT_FLOAT", "tensorShape": {}}}, "dtype": {"type": "DT_FLOAT"}}}, {"name": "StatefulPartitionedCall/sequential_1/MobileNetV3Large_1/expanded_conv_14_project_bn_1/batchnorm/sub", "op": "Const", "attr": {"value": {"tensor": {"dtype": "DT_FLOAT", "tensorShape": {"dim": [{"size": "160"}]}}}, "dtype": {"type": "DT_FLOAT"}}}, {"name": "StatefulPartitionedCall/sequential_1/MobileNetV3Large_1/Const_15", "op": "Const", "attr": {"value": {"tensor": {"dtype": "DT_FLOAT", "tensorShape": {}}}, "dtype": {"type": "DT_FLOAT"}}}, {"name": "StatefulPartitionedCall/sequential_1/MobileNetV3Large_1/expanded_conv_14_squeeze_excite_avg_pool_1/Mean/reduction_indices", "op": "Const", "attr": {"value": {"tensor": {"dtype": "DT_INT32", "tensorShape": {"dim": [{"size": "2"}]}}}, "dtype": {"type": "DT_INT32"}}}, {"name": "StatefulPartitionedCall/sequential_1/MobileNetV3Large_1/expanded_conv_14_squeeze_excite_conv_1/convolution/ReadVariableOp", "op": "Const", "attr": {"value": {"tensor": {"dtype": "DT_FLOAT", "tensorShape": {"dim": [{"size": "1"}, {"size": "1"}, {"size": "960"}, {"size": "240"}]}}}, "dtype": {"type": "DT_FLOAT"}}}, {"name": "StatefulPartitionedCall/sequential_1/MobileNetV3Large_1/expanded_conv_14_squeeze_excite_conv_1/Squeeze", "op": "Const", "attr": {"value": {"tensor": {"dtype": "DT_FLOAT", "tensorShape": {"dim": [{"size": "240"}]}}}, "dtype": {"type": "DT_FLOAT"}}}, {"name": "StatefulPartitionedCall/sequential_1/MobileNetV3Large_1/expanded_conv_14_squeeze_excite_conv_1_2/convolution/ReadVariableOp", "op": "Const", "attr": {"value": {"tensor": {"dtype": "DT_FLOAT", "tensorShape": {"dim": [{"size": "1"}, {"size": "1"}, {"size": "240"}, {"size": "960"}]}}}, "dtype": {"type": "DT_FLOAT"}}}, {"name": "StatefulPartitionedCall/sequential_1/MobileNetV3Large_1/expanded_conv_14_squeeze_excite_conv_1_2/Squeeze", "op": "Const", "attr": {"value": {"tensor": {"dtype": "DT_FLOAT", "tensorShape": {"dim": [{"size": "960"}]}}}, "dtype": {"type": "DT_FLOAT"}}}, {"name": "StatefulPartitionedCall/sequential_1/MobileNetV3Large_1/Const_14", "op": "Const", "attr": {"value": {"tensor": {"dtype": "DT_FLOAT", "tensorShape": {}}}, "dtype": {"type": "DT_FLOAT"}}}, {"name": "ConstantFolding/StatefulPartitionedCall/sequential_1/MobileNetV3Large_1/activation_18_1/truediv_recip", "op": "Const", "attr": {"value": {"tensor": {"dtype": "DT_FLOAT", "tensorShape": {}}}, "dtype": {"type": "DT_FLOAT"}}}, {"name": "ConstantFolding/StatefulPartitionedCall/sequential_1/MobileNetV3Large_1/activation_17_1/truediv_recip", "op": "Const", "attr": {"value": {"tensor": {"dtype": "DT_FLOAT", "tensorShape": {}}}, "dtype": {"type": "DT_FLOAT"}}}, {"name": "StatefulPartitionedCall/sequential_1/MobileNetV3Large_1/expanded_conv_13_project_bn_1/batchnorm/sub", "op": "Const", "attr": {"value": {"tensor": {"dtype": "DT_FLOAT", "tensorShape": {"dim": [{"size": "160"}]}}}, "dtype": {"type": "DT_FLOAT"}}}, {"name": "StatefulPartitionedCall/sequential_1/MobileNetV3Large_1/Const_13", "op": "Const", "attr": {"value": {"tensor": {"dtype": "DT_FLOAT", "tensorShape": {}}}, "dtype": {"type": "DT_FLOAT"}}}, {"name": "StatefulPartitionedCall/sequential_1/MobileNetV3Large_1/expanded_conv_13_squeeze_excite_avg_pool_1/Mean/reduction_indices", "op": "Const", "attr": {"value": {"tensor": {"dtype": "DT_INT32", "tensorShape": {"dim": [{"size": "2"}]}}}, "dtype": {"type": "DT_INT32"}}}, {"name": "StatefulPartitionedCall/sequential_1/MobileNetV3Large_1/expanded_conv_13_squeeze_excite_conv_1/convolution/ReadVariableOp", "op": "Const", "attr": {"value": {"tensor": {"dtype": "DT_FLOAT", "tensorShape": {"dim": [{"size": "1"}, {"size": "1"}, {"size": "960"}, {"size": "240"}]}}}, "dtype": {"type": "DT_FLOAT"}}}, {"name": "StatefulPartitionedCall/sequential_1/MobileNetV3Large_1/expanded_conv_13_squeeze_excite_conv_1/Squeeze", "op": "Const", "attr": {"value": {"tensor": {"dtype": "DT_FLOAT", "tensorShape": {"dim": [{"size": "240"}]}}}, "dtype": {"type": "DT_FLOAT"}}}, {"name": "StatefulPartitionedCall/sequential_1/MobileNetV3Large_1/expanded_conv_13_squeeze_excite_conv_1_2/convolution/ReadVariableOp", "op": "Const", "attr": {"value": {"tensor": {"dtype": "DT_FLOAT", "tensorShape": {"dim": [{"size": "1"}, {"size": "1"}, {"size": "240"}, {"size": "960"}]}}}, "dtype": {"type": "DT_FLOAT"}}}, {"name": "StatefulPartitionedCall/sequential_1/MobileNetV3Large_1/expanded_conv_13_squeeze_excite_conv_1_2/Squeeze", "op": "Const", "attr": {"value": {"tensor": {"dtype": "DT_FLOAT", "tensorShape": {"dim": [{"size": "960"}]}}}, "dtype": {"type": "DT_FLOAT"}}}, {"name": "StatefulPartitionedCall/sequential_1/MobileNetV3Large_1/Const_12", "op": "Const", "attr": {"value": {"tensor": {"dtype": "DT_FLOAT", "tensorShape": {}}}, "dtype": {"type": "DT_FLOAT"}}}, {"name": "ConstantFolding/StatefulPartitionedCall/sequential_1/MobileNetV3Large_1/activation_16_1/truediv_recip", "op": "Const", "attr": {"value": {"tensor": {"dtype": "DT_FLOAT", "tensorShape": {}}}, "dtype": {"type": "DT_FLOAT"}}}, {"name": "ConstantFolding/StatefulPartitionedCall/sequential_1/MobileNetV3Large_1/activation_15_1/truediv_recip", "op": "Const", "attr": {"value": {"tensor": {"dtype": "DT_FLOAT", "tensorShape": {}}}, "dtype": {"type": "DT_FLOAT"}}}, {"name": "StatefulPartitionedCall/sequential_1/MobileNetV3Large_1/Const_11", "op": "Const", "attr": {"value": {"tensor": {"dtype": "DT_FLOAT", "tensorShape": {}}}, "dtype": {"type": "DT_FLOAT"}}}, {"name": "StatefulPartitionedCall/sequential_1/MobileNetV3Large_1/expanded_conv_12_squeeze_excite_avg_pool_1/Mean/reduction_indices", "op": "Const", "attr": {"value": {"tensor": {"dtype": "DT_INT32", "tensorShape": {"dim": [{"size": "2"}]}}}, "dtype": {"type": "DT_INT32"}}}, {"name": "StatefulPartitionedCall/sequential_1/MobileNetV3Large_1/expanded_conv_12_squeeze_excite_conv_1/convolution/ReadVariableOp", "op": "Const", "attr": {"value": {"tensor": {"dtype": "DT_FLOAT", "tensorShape": {"dim": [{"size": "1"}, {"size": "1"}, {"size": "672"}, {"size": "168"}]}}}, "dtype": {"type": "DT_FLOAT"}}}, {"name": "StatefulPartitionedCall/sequential_1/MobileNetV3Large_1/expanded_conv_12_squeeze_excite_conv_1/Squeeze", "op": "Const", "attr": {"value": {"tensor": {"dtype": "DT_FLOAT", "tensorShape": {"dim": [{"size": "168"}]}}}, "dtype": {"type": "DT_FLOAT"}}}, {"name": "StatefulPartitionedCall/sequential_1/MobileNetV3Large_1/expanded_conv_12_squeeze_excite_conv_1_2/convolution/ReadVariableOp", "op": "Const", "attr": {"value": {"tensor": {"dtype": "DT_FLOAT", "tensorShape": {"dim": [{"size": "1"}, {"size": "1"}, {"size": "168"}, {"size": "672"}]}}}, "dtype": {"type": "DT_FLOAT"}}}, {"name": "StatefulPartitionedCall/sequential_1/MobileNetV3Large_1/expanded_conv_12_squeeze_excite_conv_1_2/Squeeze", "op": "Const", "attr": {"value": {"tensor": {"dtype": "DT_FLOAT", "tensorShape": {"dim": [{"size": "672"}]}}}, "dtype": {"type": "DT_FLOAT"}}}, {"name": "StatefulPartitionedCall/sequential_1/MobileNetV3Large_1/Const_10", "op": "Const", "attr": {"value": {"tensor": {"dtype": "DT_FLOAT", "tensorShape": {}}}, "dtype": {"type": "DT_FLOAT"}}}, {"name": "ConstantFolding/StatefulPartitionedCall/sequential_1/MobileNetV3Large_1/activation_14_1/truediv_recip", "op": "Const", "attr": {"value": {"tensor": {"dtype": "DT_FLOAT", "tensorShape": {}}}, "dtype": {"type": "DT_FLOAT"}}}, {"name": "ConstantFolding/StatefulPartitionedCall/sequential_1/MobileNetV3Large_1/activation_13_1/truediv_recip", "op": "Const", "attr": {"value": {"tensor": {"dtype": "DT_FLOAT", "tensorShape": {}}}, "dtype": {"type": "DT_FLOAT"}}}, {"name": "StatefulPartitionedCall/sequential_1/MobileNetV3Large_1/expanded_conv_11_project_bn_1/batchnorm/sub", "op": "Const", "attr": {"value": {"tensor": {"dtype": "DT_FLOAT", "tensorShape": {"dim": [{"size": "112"}]}}}, "dtype": {"type": "DT_FLOAT"}}}, {"name": "StatefulPartitionedCall/sequential_1/MobileNetV3Large_1/Const_9", "op": "Const", "attr": {"value": {"tensor": {"dtype": "DT_FLOAT", "tensorShape": {}}}, "dtype": {"type": "DT_FLOAT"}}}, {"name": "StatefulPartitionedCall/sequential_1/MobileNetV3Large_1/expanded_conv_11_squeeze_excite_avg_pool_1/Mean/reduction_indices", "op": "Const", "attr": {"value": {"tensor": {"dtype": "DT_INT32", "tensorShape": {"dim": [{"size": "2"}]}}}, "dtype": {"type": "DT_INT32"}}}, {"name": "StatefulPartitionedCall/sequential_1/MobileNetV3Large_1/expanded_conv_11_squeeze_excite_conv_1/convolution/ReadVariableOp", "op": "Const", "attr": {"value": {"tensor": {"dtype": "DT_FLOAT", "tensorShape": {"dim": [{"size": "1"}, {"size": "1"}, {"size": "672"}, {"size": "168"}]}}}, "dtype": {"type": "DT_FLOAT"}}}, {"name": "StatefulPartitionedCall/sequential_1/MobileNetV3Large_1/expanded_conv_11_squeeze_excite_conv_1/Squeeze", "op": "Const", "attr": {"value": {"tensor": {"dtype": "DT_FLOAT", "tensorShape": {"dim": [{"size": "168"}]}}}, "dtype": {"type": "DT_FLOAT"}}}, {"name": "StatefulPartitionedCall/sequential_1/MobileNetV3Large_1/expanded_conv_11_squeeze_excite_conv_1_2/convolution/ReadVariableOp", "op": "Const", "attr": {"value": {"tensor": {"dtype": "DT_FLOAT", "tensorShape": {"dim": [{"size": "1"}, {"size": "1"}, {"size": "168"}, {"size": "672"}]}}}, "dtype": {"type": "DT_FLOAT"}}}, {"name": "StatefulPartitionedCall/sequential_1/MobileNetV3Large_1/expanded_conv_11_squeeze_excite_conv_1_2/Squeeze", "op": "Const", "attr": {"value": {"tensor": {"dtype": "DT_FLOAT", "tensorShape": {"dim": [{"size": "672"}]}}}, "dtype": {"type": "DT_FLOAT"}}}, {"name": "StatefulPartitionedCall/sequential_1/MobileNetV3Large_1/Const_8", "op": "Const", "attr": {"value": {"tensor": {"dtype": "DT_FLOAT", "tensorShape": {}}}, "dtype": {"type": "DT_FLOAT"}}}, {"name": "ConstantFolding/StatefulPartitionedCall/sequential_1/MobileNetV3Large_1/activation_12_1/truediv_recip", "op": "Const", "attr": {"value": {"tensor": {"dtype": "DT_FLOAT", "tensorShape": {}}}, "dtype": {"type": "DT_FLOAT"}}}, {"name": "ConstantFolding/StatefulPartitionedCall/sequential_1/MobileNetV3Large_1/activation_11_1/truediv_recip", "op": "Const", "attr": {"value": {"tensor": {"dtype": "DT_FLOAT", "tensorShape": {}}}, "dtype": {"type": "DT_FLOAT"}}}, {"name": "StatefulPartitionedCall/sequential_1/MobileNetV3Large_1/Const_7", "op": "Const", "attr": {"value": {"tensor": {"dtype": "DT_FLOAT", "tensorShape": {}}}, "dtype": {"type": "DT_FLOAT"}}}, {"name": "StatefulPartitionedCall/sequential_1/MobileNetV3Large_1/expanded_conv_10_squeeze_excite_avg_pool_1/Mean/reduction_indices", "op": "Const", "attr": {"value": {"tensor": {"dtype": "DT_INT32", "tensorShape": {"dim": [{"size": "2"}]}}}, "dtype": {"type": "DT_INT32"}}}, {"name": "StatefulPartitionedCall/sequential_1/MobileNetV3Large_1/expanded_conv_10_squeeze_excite_conv_1/convolution/ReadVariableOp", "op": "Const", "attr": {"value": {"tensor": {"dtype": "DT_FLOAT", "tensorShape": {"dim": [{"size": "1"}, {"size": "1"}, {"size": "480"}, {"size": "120"}]}}}, "dtype": {"type": "DT_FLOAT"}}}, {"name": "StatefulPartitionedCall/sequential_1/MobileNetV3Large_1/expanded_conv_10_squeeze_excite_conv_1/Squeeze", "op": "Const", "attr": {"value": {"tensor": {"dtype": "DT_FLOAT", "tensorShape": {"dim": [{"size": "120"}]}}}, "dtype": {"type": "DT_FLOAT"}}}, {"name": "StatefulPartitionedCall/sequential_1/MobileNetV3Large_1/expanded_conv_10_squeeze_excite_conv_1_2/convolution/ReadVariableOp", "op": "Const", "attr": {"value": {"tensor": {"dtype": "DT_FLOAT", "tensorShape": {"dim": [{"size": "1"}, {"size": "1"}, {"size": "120"}, {"size": "480"}]}}}, "dtype": {"type": "DT_FLOAT"}}}, {"name": "StatefulPartitionedCall/sequential_1/MobileNetV3Large_1/expanded_conv_10_squeeze_excite_conv_1_2/Squeeze", "op": "Const", "attr": {"value": {"tensor": {"dtype": "DT_FLOAT", "tensorShape": {"dim": [{"size": "480"}]}}}, "dtype": {"type": "DT_FLOAT"}}}, {"name": "StatefulPartitionedCall/sequential_1/MobileNetV3Large_1/Const_6", "op": "Const", "attr": {"value": {"tensor": {"dtype": "DT_FLOAT", "tensorShape": {}}}, "dtype": {"type": "DT_FLOAT"}}}, {"name": "ConstantFolding/StatefulPartitionedCall/sequential_1/MobileNetV3Large_1/activation_10_1/truediv_recip", "op": "Const", "attr": {"value": {"tensor": {"dtype": "DT_FLOAT", "tensorShape": {}}}, "dtype": {"type": "DT_FLOAT"}}}, {"name": "ConstantFolding/StatefulPartitionedCall/sequential_1/MobileNetV3Large_1/activation_9_1/truediv_recip", "op": "Const", "attr": {"value": {"tensor": {"dtype": "DT_FLOAT", "tensorShape": {}}}, "dtype": {"type": "DT_FLOAT"}}}, {"name": "StatefulPartitionedCall/sequential_1/MobileNetV3Large_1/expanded_conv_9_project_bn_1/batchnorm/sub", "op": "Const", "attr": {"value": {"tensor": {"dtype": "DT_FLOAT", "tensorShape": {"dim": [{"size": "80"}]}}}, "dtype": {"type": "DT_FLOAT"}}}, {"name": "ConstantFolding/StatefulPartitionedCall/sequential_1/MobileNetV3Large_1/activation_8_1/truediv_recip", "op": "Const", "attr": {"value": {"tensor": {"dtype": "DT_FLOAT", "tensorShape": {}}}, "dtype": {"type": "DT_FLOAT"}}}, {"name": "ConstantFolding/StatefulPartitionedCall/sequential_1/MobileNetV3Large_1/activation_7_1/truediv_recip", "op": "Const", "attr": {"value": {"tensor": {"dtype": "DT_FLOAT", "tensorShape": {}}}, "dtype": {"type": "DT_FLOAT"}}}, {"name": "StatefulPartitionedCall/sequential_1/MobileNetV3Large_1/expanded_conv_8_project_bn_1/batchnorm/sub", "op": "Const", "attr": {"value": {"tensor": {"dtype": "DT_FLOAT", "tensorShape": {"dim": [{"size": "80"}]}}}, "dtype": {"type": "DT_FLOAT"}}}, {"name": "ConstantFolding/StatefulPartitionedCall/sequential_1/MobileNetV3Large_1/activation_6_1/truediv_recip", "op": "Const", "attr": {"value": {"tensor": {"dtype": "DT_FLOAT", "tensorShape": {}}}, "dtype": {"type": "DT_FLOAT"}}}, {"name": "ConstantFolding/StatefulPartitionedCall/sequential_1/MobileNetV3Large_1/activation_5_1/truediv_recip", "op": "Const", "attr": {"value": {"tensor": {"dtype": "DT_FLOAT", "tensorShape": {}}}, "dtype": {"type": "DT_FLOAT"}}}, {"name": "StatefulPartitionedCall/sequential_1/MobileNetV3Large_1/expanded_conv_7_project_bn_1/batchnorm/sub", "op": "Const", "attr": {"value": {"tensor": {"dtype": "DT_FLOAT", "tensorShape": {"dim": [{"size": "80"}]}}}, "dtype": {"type": "DT_FLOAT"}}}, {"name": "ConstantFolding/StatefulPartitionedCall/sequential_1/MobileNetV3Large_1/activation_4_1/truediv_recip", "op": "Const", "attr": {"value": {"tensor": {"dtype": "DT_FLOAT", "tensorShape": {}}}, "dtype": {"type": "DT_FLOAT"}}}, {"name": "ConstantFolding/StatefulPartitionedCall/sequential_1/MobileNetV3Large_1/activation_3_1/truediv_recip", "op": "Const", "attr": {"value": {"tensor": {"dtype": "DT_FLOAT", "tensorShape": {}}}, "dtype": {"type": "DT_FLOAT"}}}, {"name": "ConstantFolding/StatefulPartitionedCall/sequential_1/MobileNetV3Large_1/activation_2_1/truediv_recip", "op": "Const", "attr": {"value": {"tensor": {"dtype": "DT_FLOAT", "tensorShape": {}}}, "dtype": {"type": "DT_FLOAT"}}}, {"name": "ConstantFolding/StatefulPartitionedCall/sequential_1/MobileNetV3Large_1/activation_1_2/truediv_recip", "op": "Const", "attr": {"value": {"tensor": {"dtype": "DT_FLOAT", "tensorShape": {}}}, "dtype": {"type": "DT_FLOAT"}}}, {"name": "StatefulPartitionedCall/sequential_1/MobileNetV3Large_1/expanded_conv_5_project_bn_1/batchnorm/sub", "op": "Const", "attr": {"value": {"tensor": {"dtype": "DT_FLOAT", "tensorShape": {"dim": [{"size": "40"}]}}}, "dtype": {"type": "DT_FLOAT"}}}, {"name": "StatefulPartitionedCall/sequential_1/MobileNetV3Large_1/Const_5", "op": "Const", "attr": {"value": {"tensor": {"dtype": "DT_FLOAT", "tensorShape": {}}}, "dtype": {"type": "DT_FLOAT"}}}, {"name": "StatefulPartitionedCall/sequential_1/MobileNetV3Large_1/expanded_conv_5_squeeze_excite_avg_pool_1/Mean/reduction_indices", "op": "Const", "attr": {"value": {"tensor": {"dtype": "DT_INT32", "tensorShape": {"dim": [{"size": "2"}]}}}, "dtype": {"type": "DT_INT32"}}}, {"name": "StatefulPartitionedCall/sequential_1/MobileNetV3Large_1/expanded_conv_5_squeeze_excite_conv_1/convolution/ReadVariableOp", "op": "Const", "attr": {"value": {"tensor": {"dtype": "DT_FLOAT", "tensorShape": {"dim": [{"size": "1"}, {"size": "1"}, {"size": "120"}, {"size": "32"}]}}}, "dtype": {"type": "DT_FLOAT"}}}, {"name": "StatefulPartitionedCall/sequential_1/MobileNetV3Large_1/expanded_conv_5_squeeze_excite_conv_1/Squeeze", "op": "Const", "attr": {"value": {"tensor": {"dtype": "DT_FLOAT", "tensorShape": {"dim": [{"size": "32"}]}}}, "dtype": {"type": "DT_FLOAT"}}}, {"name": "StatefulPartitionedCall/sequential_1/MobileNetV3Large_1/expanded_conv_5_squeeze_excite_conv_1_2/convolution/ReadVariableOp", "op": "Const", "attr": {"value": {"tensor": {"dtype": "DT_FLOAT", "tensorShape": {"dim": [{"size": "1"}, {"size": "1"}, {"size": "32"}, {"size": "120"}]}}}, "dtype": {"type": "DT_FLOAT"}}}, {"name": "StatefulPartitionedCall/sequential_1/MobileNetV3Large_1/expanded_conv_5_squeeze_excite_conv_1_2/Squeeze", "op": "Const", "attr": {"value": {"tensor": {"dtype": "DT_FLOAT", "tensorShape": {"dim": [{"size": "120"}]}}}, "dtype": {"type": "DT_FLOAT"}}}, {"name": "StatefulPartitionedCall/sequential_1/MobileNetV3Large_1/Const_4", "op": "Const", "attr": {"value": {"tensor": {"dtype": "DT_FLOAT", "tensorShape": {}}}, "dtype": {"type": "DT_FLOAT"}}}, {"name": "StatefulPartitionedCall/sequential_1/MobileNetV3Large_1/expanded_conv_4_project_bn_1/batchnorm/sub", "op": "Const", "attr": {"value": {"tensor": {"dtype": "DT_FLOAT", "tensorShape": {"dim": [{"size": "40"}]}}}, "dtype": {"type": "DT_FLOAT"}}}, {"name": "StatefulPartitionedCall/sequential_1/MobileNetV3Large_1/Const_3", "op": "Const", "attr": {"value": {"tensor": {"dtype": "DT_FLOAT", "tensorShape": {}}}, "dtype": {"type": "DT_FLOAT"}}}, {"name": "StatefulPartitionedCall/sequential_1/MobileNetV3Large_1/expanded_conv_4_squeeze_excite_avg_pool_1/Mean/reduction_indices", "op": "Const", "attr": {"value": {"tensor": {"dtype": "DT_INT32", "tensorShape": {"dim": [{"size": "2"}]}}}, "dtype": {"type": "DT_INT32"}}}, {"name": "StatefulPartitionedCall/sequential_1/MobileNetV3Large_1/expanded_conv_4_squeeze_excite_conv_1/convolution/ReadVariableOp", "op": "Const", "attr": {"value": {"tensor": {"dtype": "DT_FLOAT", "tensorShape": {"dim": [{"size": "1"}, {"size": "1"}, {"size": "120"}, {"size": "32"}]}}}, "dtype": {"type": "DT_FLOAT"}}}, {"name": "StatefulPartitionedCall/sequential_1/MobileNetV3Large_1/expanded_conv_4_squeeze_excite_conv_1/Squeeze", "op": "Const", "attr": {"value": {"tensor": {"dtype": "DT_FLOAT", "tensorShape": {"dim": [{"size": "32"}]}}}, "dtype": {"type": "DT_FLOAT"}}}, {"name": "StatefulPartitionedCall/sequential_1/MobileNetV3Large_1/expanded_conv_4_squeeze_excite_conv_1_2/convolution/ReadVariableOp", "op": "Const", "attr": {"value": {"tensor": {"dtype": "DT_FLOAT", "tensorShape": {"dim": [{"size": "1"}, {"size": "1"}, {"size": "32"}, {"size": "120"}]}}}, "dtype": {"type": "DT_FLOAT"}}}, {"name": "StatefulPartitionedCall/sequential_1/MobileNetV3Large_1/expanded_conv_4_squeeze_excite_conv_1_2/Squeeze", "op": "Const", "attr": {"value": {"tensor": {"dtype": "DT_FLOAT", "tensorShape": {"dim": [{"size": "120"}]}}}, "dtype": {"type": "DT_FLOAT"}}}, {"name": "StatefulPartitionedCall/sequential_1/MobileNetV3Large_1/Const_2", "op": "Const", "attr": {"value": {"tensor": {"dtype": "DT_FLOAT", "tensorShape": {}}}, "dtype": {"type": "DT_FLOAT"}}}, {"name": "StatefulPartitionedCall/sequential_1/MobileNetV3Large_1/Const_1", "op": "Const", "attr": {"value": {"tensor": {"dtype": "DT_FLOAT", "tensorShape": {}}}, "dtype": {"type": "DT_FLOAT"}}}, {"name": "StatefulPartitionedCall/sequential_1/MobileNetV3Large_1/expanded_conv_3_squeeze_excite_avg_pool_1/Mean/reduction_indices", "op": "Const", "attr": {"value": {"tensor": {"dtype": "DT_INT32", "tensorShape": {"dim": [{"size": "2"}]}}}, "dtype": {"type": "DT_INT32"}}}, {"name": "StatefulPartitionedCall/sequential_1/MobileNetV3Large_1/expanded_conv_3_squeeze_excite_conv_1/convolution/ReadVariableOp", "op": "Const", "attr": {"value": {"tensor": {"dtype": "DT_FLOAT", "tensorShape": {"dim": [{"size": "1"}, {"size": "1"}, {"size": "72"}, {"size": "24"}]}}}, "dtype": {"type": "DT_FLOAT"}}}, {"name": "StatefulPartitionedCall/sequential_1/MobileNetV3Large_1/expanded_conv_3_squeeze_excite_conv_1/Squeeze", "op": "Const", "attr": {"value": {"tensor": {"dtype": "DT_FLOAT", "tensorShape": {"dim": [{"size": "24"}]}}}, "dtype": {"type": "DT_FLOAT"}}}, {"name": "StatefulPartitionedCall/sequential_1/MobileNetV3Large_1/expanded_conv_3_squeeze_excite_conv_1_2/convolution/ReadVariableOp", "op": "Const", "attr": {"value": {"tensor": {"dtype": "DT_FLOAT", "tensorShape": {"dim": [{"size": "1"}, {"size": "1"}, {"size": "24"}, {"size": "72"}]}}}, "dtype": {"type": "DT_FLOAT"}}}, {"name": "StatefulPartitionedCall/sequential_1/MobileNetV3Large_1/expanded_conv_3_squeeze_excite_conv_1_2/Squeeze", "op": "Const", "attr": {"value": {"tensor": {"dtype": "DT_FLOAT", "tensorShape": {"dim": [{"size": "72"}]}}}, "dtype": {"type": "DT_FLOAT"}}}, {"name": "StatefulPartitionedCall/sequential_1/MobileNetV3Large_1/Const", "op": "Const", "attr": {"value": {"tensor": {"dtype": "DT_FLOAT", "tensorShape": {}}}, "dtype": {"type": "DT_FLOAT"}}}, {"name": "StatefulPartitionedCall/sequential_1/MobileNetV3Large_1/expanded_conv_2_project_bn_1/batchnorm/sub", "op": "Const", "attr": {"value": {"tensor": {"dtype": "DT_FLOAT", "tensorShape": {"dim": [{"size": "24"}]}}}, "dtype": {"type": "DT_FLOAT"}}}, {"name": "StatefulPartitionedCall/sequential_1/MobileNetV3Large_1/expanded_conv_project_bn_1/batchnorm/sub", "op": "Const", "attr": {"value": {"tensor": {"dtype": "DT_FLOAT", "tensorShape": {"dim": [{"size": "16"}]}}}, "dtype": {"type": "DT_FLOAT"}}}, {"name": "ConstantFolding/StatefulPartitionedCall/sequential_1/MobileNetV3Large_1/activation_1/truediv_recip", "op": "Const", "attr": {"value": {"tensor": {"dtype": "DT_FLOAT", "tensorShape": {}}}, "dtype": {"type": "DT_FLOAT"}}}, {"name": "StatefulPartitionedCall/sequential_1/MobileNetV3Large_1/rescaling_1/Cast/x", "op": "Const", "attr": {"value": {"tensor": {"dtype": "DT_FLOAT", "tensorShape": {}}}, "dtype": {"type": "DT_FLOAT"}}}, {"name": "StatefulPartitionedCall/sequential_1/MobileNetV3Large_1/rescaling_1/Cast_1/x", "op": "Const", "attr": {"value": {"tensor": {"dtype": "DT_FLOAT", "tensorShape": {}}}, "dtype": {"type": "DT_FLOAT"}}}, {"name": "StatefulPartitionedCall/sequential_1/MobileNetV3Large_1/conv_1/convolution/merged_input", "op": "Const", "attr": {"value": {"tensor": {"dtype": "DT_FLOAT", "tensorShape": {"dim": [{"size": "3"}, {"size": "3"}, {"size": "3"}, {"size": "16"}]}}}, "dtype": {"type": "DT_FLOAT"}}}, {"name": "StatefulPartitionedCall/sequential_1/MobileNetV3Large_1/conv_bn_1/batchnorm/sub", "op": "Const", "attr": {"value": {"tensor": {"dtype": "DT_FLOAT", "tensorShape": {"dim": [{"size": "16"}]}}}, "dtype": {"type": "DT_FLOAT"}}}, {"name": "StatefulPartitionedCall/sequential_1/MobileNetV3Large_1/activation_1/Const", "op": "Const", "attr": {"value": {"tensor": {"dtype": "DT_FLOAT", "tensorShape": {}}}, "dtype": {"type": "DT_FLOAT"}}}, {"name": "StatefulPartitionedCall/sequential_1/MobileNetV3Large_1/expanded_conv_depthwise_1/depthwise/ReadVariableOp", "op": "Const", "attr": {"value": {"tensor": {"dtype": "DT_FLOAT", "tensorShape": {"dim": [{"size": "3"}, {"size": "3"}, {"size": "16"}, {"size": "1"}]}}}, "dtype": {"type": "DT_FLOAT"}}}, {"name": "StatefulPartitionedCall/sequential_1/MobileNetV3Large_1/expanded_conv_depthwise_bn_1/batchnorm/mul", "op": "Const", "attr": {"value": {"tensor": {"dtype": "DT_FLOAT", "tensorShape": {"dim": [{"size": "16"}]}}}, "dtype": {"type": "DT_FLOAT"}}}, {"name": "StatefulPartitionedCall/sequential_1/MobileNetV3Large_1/expanded_conv_depthwise_bn_1/batchnorm/sub", "op": "Const", "attr": {"value": {"tensor": {"dtype": "DT_FLOAT", "tensorShape": {"dim": [{"size": "16"}]}}}, "dtype": {"type": "DT_FLOAT"}}}, {"name": "StatefulPartitionedCall/sequential_1/MobileNetV3Large_1/expanded_conv_project_1/convolution/merged_input", "op": "Const", "attr": {"value": {"tensor": {"dtype": "DT_FLOAT", "tensorShape": {"dim": [{"size": "1"}, {"size": "1"}, {"size": "16"}, {"size": "16"}]}}}, "dtype": {"type": "DT_FLOAT"}}}, {"name": "StatefulPartitionedCall/sequential_1/MobileNetV3Large_1/expanded_conv_1_expand_1/convolution/merged_input", "op": "Const", "attr": {"value": {"tensor": {"dtype": "DT_FLOAT", "tensorShape": {"dim": [{"size": "1"}, {"size": "1"}, {"size": "16"}, {"size": "64"}]}}}, "dtype": {"type": "DT_FLOAT"}}}, {"name": "StatefulPartitionedCall/sequential_1/MobileNetV3Large_1/expanded_conv_1_expand_bn_1/batchnorm/sub", "op": "Const", "attr": {"value": {"tensor": {"dtype": "DT_FLOAT", "tensorShape": {"dim": [{"size": "64"}]}}}, "dtype": {"type": "DT_FLOAT"}}}, {"name": "StatefulPartitionedCall/sequential_1/MobileNetV3Large_1/expanded_conv_1_depthwise_pad_1/Const", "op": "Const", "attr": {"value": {"tensor": {"dtype": "DT_INT32", "tensorShape": {"dim": [{"size": "4"}, {"size": "2"}]}}}, "dtype": {"type": "DT_INT32"}}}, {"name": "StatefulPartitionedCall/sequential_1/MobileNetV3Large_1/expanded_conv_1_depthwise_1/depthwise/ReadVariableOp", "op": "Const", "attr": {"value": {"tensor": {"dtype": "DT_FLOAT", "tensorShape": {"dim": [{"size": "3"}, {"size": "3"}, {"size": "64"}, {"size": "1"}]}}}, "dtype": {"type": "DT_FLOAT"}}}, {"name": "StatefulPartitionedCall/sequential_1/MobileNetV3Large_1/expanded_conv_1_depthwise_bn_1/batchnorm/mul", "op": "Const", "attr": {"value": {"tensor": {"dtype": "DT_FLOAT", "tensorShape": {"dim": [{"size": "64"}]}}}, "dtype": {"type": "DT_FLOAT"}}}, {"name": "StatefulPartitionedCall/sequential_1/MobileNetV3Large_1/expanded_conv_1_depthwise_bn_1/batchnorm/sub", "op": "Const", "attr": {"value": {"tensor": {"dtype": "DT_FLOAT", "tensorShape": {"dim": [{"size": "64"}]}}}, "dtype": {"type": "DT_FLOAT"}}}, {"name": "StatefulPartitionedCall/sequential_1/MobileNetV3Large_1/expanded_conv_1_project_1/convolution/merged_input", "op": "Const", "attr": {"value": {"tensor": {"dtype": "DT_FLOAT", "tensorShape": {"dim": [{"size": "1"}, {"size": "1"}, {"size": "64"}, {"size": "24"}]}}}, "dtype": {"type": "DT_FLOAT"}}}, {"name": "StatefulPartitionedCall/sequential_1/MobileNetV3Large_1/expanded_conv_1_project_bn_1/batchnorm/sub", "op": "Const", "attr": {"value": {"tensor": {"dtype": "DT_FLOAT", "tensorShape": {"dim": [{"size": "24"}]}}}, "dtype": {"type": "DT_FLOAT"}}}, {"name": "StatefulPartitionedCall/sequential_1/MobileNetV3Large_1/expanded_conv_2_expand_1/convolution/merged_input", "op": "Const", "attr": {"value": {"tensor": {"dtype": "DT_FLOAT", "tensorShape": {"dim": [{"size": "1"}, {"size": "1"}, {"size": "24"}, {"size": "72"}]}}}, "dtype": {"type": "DT_FLOAT"}}}, {"name": "StatefulPartitionedCall/sequential_1/MobileNetV3Large_1/expanded_conv_2_expand_bn_1/batchnorm/sub", "op": "Const", "attr": {"value": {"tensor": {"dtype": "DT_FLOAT", "tensorShape": {"dim": [{"size": "72"}]}}}, "dtype": {"type": "DT_FLOAT"}}}, {"name": "StatefulPartitionedCall/sequential_1/MobileNetV3Large_1/expanded_conv_2_depthwise_1/depthwise/ReadVariableOp", "op": "Const", "attr": {"value": {"tensor": {"dtype": "DT_FLOAT", "tensorShape": {"dim": [{"size": "3"}, {"size": "3"}, {"size": "72"}, {"size": "1"}]}}}, "dtype": {"type": "DT_FLOAT"}}}, {"name": "StatefulPartitionedCall/sequential_1/MobileNetV3Large_1/expanded_conv_2_depthwise_bn_1/batchnorm/mul", "op": "Const", "attr": {"value": {"tensor": {"dtype": "DT_FLOAT", "tensorShape": {"dim": [{"size": "72"}]}}}, "dtype": {"type": "DT_FLOAT"}}}, {"name": "StatefulPartitionedCall/sequential_1/MobileNetV3Large_1/expanded_conv_2_depthwise_bn_1/batchnorm/sub", "op": "Const", "attr": {"value": {"tensor": {"dtype": "DT_FLOAT", "tensorShape": {"dim": [{"size": "72"}]}}}, "dtype": {"type": "DT_FLOAT"}}}, {"name": "StatefulPartitionedCall/sequential_1/MobileNetV3Large_1/expanded_conv_2_project_1/convolution/merged_input", "op": "Const", "attr": {"value": {"tensor": {"dtype": "DT_FLOAT", "tensorShape": {"dim": [{"size": "1"}, {"size": "1"}, {"size": "72"}, {"size": "24"}]}}}, "dtype": {"type": "DT_FLOAT"}}}, {"name": "StatefulPartitionedCall/sequential_1/MobileNetV3Large_1/expanded_conv_3_expand_1/convolution/merged_input", "op": "Const", "attr": {"value": {"tensor": {"dtype": "DT_FLOAT", "tensorShape": {"dim": [{"size": "1"}, {"size": "1"}, {"size": "24"}, {"size": "72"}]}}}, "dtype": {"type": "DT_FLOAT"}}}, {"name": "StatefulPartitionedCall/sequential_1/MobileNetV3Large_1/expanded_conv_3_expand_bn_1/batchnorm/sub", "op": "Const", "attr": {"value": {"tensor": {"dtype": "DT_FLOAT", "tensorShape": {"dim": [{"size": "72"}]}}}, "dtype": {"type": "DT_FLOAT"}}}, {"name": "StatefulPartitionedCall/sequential_1/MobileNetV3Large_1/expanded_conv_3_depthwise_pad_1/Const", "op": "Const", "attr": {"value": {"tensor": {"dtype": "DT_INT32", "tensorShape": {"dim": [{"size": "4"}, {"size": "2"}]}}}, "dtype": {"type": "DT_INT32"}}}, {"name": "StatefulPartitionedCall/sequential_1/MobileNetV3Large_1/expanded_conv_3_depthwise_1/depthwise/ReadVariableOp", "op": "Const", "attr": {"value": {"tensor": {"dtype": "DT_FLOAT", "tensorShape": {"dim": [{"size": "5"}, {"size": "5"}, {"size": "72"}, {"size": "1"}]}}}, "dtype": {"type": "DT_FLOAT"}}}, {"name": "StatefulPartitionedCall/sequential_1/MobileNetV3Large_1/expanded_conv_3_depthwise_bn_1/batchnorm/mul", "op": "Const", "attr": {"value": {"tensor": {"dtype": "DT_FLOAT", "tensorShape": {"dim": [{"size": "72"}]}}}, "dtype": {"type": "DT_FLOAT"}}}, {"name": "StatefulPartitionedCall/sequential_1/MobileNetV3Large_1/expanded_conv_3_depthwise_bn_1/batchnorm/sub", "op": "Const", "attr": {"value": {"tensor": {"dtype": "DT_FLOAT", "tensorShape": {"dim": [{"size": "72"}]}}}, "dtype": {"type": "DT_FLOAT"}}}, {"name": "StatefulPartitionedCall/sequential_1/MobileNetV3Large_1/expanded_conv_3_project_1/convolution/merged_input", "op": "Const", "attr": {"value": {"tensor": {"dtype": "DT_FLOAT", "tensorShape": {"dim": [{"size": "1"}, {"size": "1"}, {"size": "72"}, {"size": "40"}]}}}, "dtype": {"type": "DT_FLOAT"}}}, {"name": "StatefulPartitionedCall/sequential_1/MobileNetV3Large_1/expanded_conv_3_project_bn_1/batchnorm/sub", "op": "Const", "attr": {"value": {"tensor": {"dtype": "DT_FLOAT", "tensorShape": {"dim": [{"size": "40"}]}}}, "dtype": {"type": "DT_FLOAT"}}}, {"name": "StatefulPartitionedCall/sequential_1/MobileNetV3Large_1/expanded_conv_4_expand_1/convolution/merged_input", "op": "Const", "attr": {"value": {"tensor": {"dtype": "DT_FLOAT", "tensorShape": {"dim": [{"size": "1"}, {"size": "1"}, {"size": "40"}, {"size": "120"}]}}}, "dtype": {"type": "DT_FLOAT"}}}, {"name": "StatefulPartitionedCall/sequential_1/MobileNetV3Large_1/expanded_conv_4_expand_bn_1/batchnorm/sub", "op": "Const", "attr": {"value": {"tensor": {"dtype": "DT_FLOAT", "tensorShape": {"dim": [{"size": "120"}]}}}, "dtype": {"type": "DT_FLOAT"}}}, {"name": "StatefulPartitionedCall/sequential_1/MobileNetV3Large_1/expanded_conv_4_depthwise_1/depthwise/ReadVariableOp", "op": "Const", "attr": {"value": {"tensor": {"dtype": "DT_FLOAT", "tensorShape": {"dim": [{"size": "5"}, {"size": "5"}, {"size": "120"}, {"size": "1"}]}}}, "dtype": {"type": "DT_FLOAT"}}}, {"name": "StatefulPartitionedCall/sequential_1/MobileNetV3Large_1/expanded_conv_4_depthwise_bn_1/batchnorm/mul", "op": "Const", "attr": {"value": {"tensor": {"dtype": "DT_FLOAT", "tensorShape": {"dim": [{"size": "120"}]}}}, "dtype": {"type": "DT_FLOAT"}}}, {"name": "StatefulPartitionedCall/sequential_1/MobileNetV3Large_1/expanded_conv_4_depthwise_bn_1/batchnorm/sub", "op": "Const", "attr": {"value": {"tensor": {"dtype": "DT_FLOAT", "tensorShape": {"dim": [{"size": "120"}]}}}, "dtype": {"type": "DT_FLOAT"}}}, {"name": "StatefulPartitionedCall/sequential_1/MobileNetV3Large_1/expanded_conv_4_project_1/convolution/merged_input", "op": "Const", "attr": {"value": {"tensor": {"dtype": "DT_FLOAT", "tensorShape": {"dim": [{"size": "1"}, {"size": "1"}, {"size": "120"}, {"size": "40"}]}}}, "dtype": {"type": "DT_FLOAT"}}}, {"name": "StatefulPartitionedCall/sequential_1/MobileNetV3Large_1/expanded_conv_5_expand_1/convolution/merged_input", "op": "Const", "attr": {"value": {"tensor": {"dtype": "DT_FLOAT", "tensorShape": {"dim": [{"size": "1"}, {"size": "1"}, {"size": "40"}, {"size": "120"}]}}}, "dtype": {"type": "DT_FLOAT"}}}, {"name": "StatefulPartitionedCall/sequential_1/MobileNetV3Large_1/expanded_conv_5_expand_bn_1/batchnorm/sub", "op": "Const", "attr": {"value": {"tensor": {"dtype": "DT_FLOAT", "tensorShape": {"dim": [{"size": "120"}]}}}, "dtype": {"type": "DT_FLOAT"}}}, {"name": "StatefulPartitionedCall/sequential_1/MobileNetV3Large_1/expanded_conv_5_depthwise_1/depthwise/ReadVariableOp", "op": "Const", "attr": {"value": {"tensor": {"dtype": "DT_FLOAT", "tensorShape": {"dim": [{"size": "5"}, {"size": "5"}, {"size": "120"}, {"size": "1"}]}}}, "dtype": {"type": "DT_FLOAT"}}}, {"name": "StatefulPartitionedCall/sequential_1/MobileNetV3Large_1/expanded_conv_5_depthwise_bn_1/batchnorm/mul", "op": "Const", "attr": {"value": {"tensor": {"dtype": "DT_FLOAT", "tensorShape": {"dim": [{"size": "120"}]}}}, "dtype": {"type": "DT_FLOAT"}}}, {"name": "StatefulPartitionedCall/sequential_1/MobileNetV3Large_1/expanded_conv_5_depthwise_bn_1/batchnorm/sub", "op": "Const", "attr": {"value": {"tensor": {"dtype": "DT_FLOAT", "tensorShape": {"dim": [{"size": "120"}]}}}, "dtype": {"type": "DT_FLOAT"}}}, {"name": "StatefulPartitionedCall/sequential_1/MobileNetV3Large_1/expanded_conv_5_project_1/convolution/merged_input", "op": "Const", "attr": {"value": {"tensor": {"dtype": "DT_FLOAT", "tensorShape": {"dim": [{"size": "1"}, {"size": "1"}, {"size": "120"}, {"size": "40"}]}}}, "dtype": {"type": "DT_FLOAT"}}}, {"name": "StatefulPartitionedCall/sequential_1/MobileNetV3Large_1/expanded_conv_6_expand_1/convolution/merged_input", "op": "Const", "attr": {"value": {"tensor": {"dtype": "DT_FLOAT", "tensorShape": {"dim": [{"size": "1"}, {"size": "1"}, {"size": "40"}, {"size": "240"}]}}}, "dtype": {"type": "DT_FLOAT"}}}, {"name": "StatefulPartitionedCall/sequential_1/MobileNetV3Large_1/expanded_conv_6_expand_bn_1/batchnorm/sub", "op": "Const", "attr": {"value": {"tensor": {"dtype": "DT_FLOAT", "tensorShape": {"dim": [{"size": "240"}]}}}, "dtype": {"type": "DT_FLOAT"}}}, {"name": "StatefulPartitionedCall/sequential_1/MobileNetV3Large_1/activation_1_2/Const", "op": "Const", "attr": {"value": {"tensor": {"dtype": "DT_FLOAT", "tensorShape": {}}}, "dtype": {"type": "DT_FLOAT"}}}, {"name": "StatefulPartitionedCall/sequential_1/MobileNetV3Large_1/expanded_conv_6_depthwise_pad_1/Const", "op": "Const", "attr": {"value": {"tensor": {"dtype": "DT_INT32", "tensorShape": {"dim": [{"size": "4"}, {"size": "2"}]}}}, "dtype": {"type": "DT_INT32"}}}, {"name": "StatefulPartitionedCall/sequential_1/MobileNetV3Large_1/expanded_conv_6_depthwise_1/depthwise/ReadVariableOp", "op": "Const", "attr": {"value": {"tensor": {"dtype": "DT_FLOAT", "tensorShape": {"dim": [{"size": "3"}, {"size": "3"}, {"size": "240"}, {"size": "1"}]}}}, "dtype": {"type": "DT_FLOAT"}}}, {"name": "StatefulPartitionedCall/sequential_1/MobileNetV3Large_1/expanded_conv_6_depthwise_bn_1/batchnorm/mul", "op": "Const", "attr": {"value": {"tensor": {"dtype": "DT_FLOAT", "tensorShape": {"dim": [{"size": "240"}]}}}, "dtype": {"type": "DT_FLOAT"}}}, {"name": "StatefulPartitionedCall/sequential_1/MobileNetV3Large_1/expanded_conv_6_depthwise_bn_1/batchnorm/sub", "op": "Const", "attr": {"value": {"tensor": {"dtype": "DT_FLOAT", "tensorShape": {"dim": [{"size": "240"}]}}}, "dtype": {"type": "DT_FLOAT"}}}, {"name": "StatefulPartitionedCall/sequential_1/MobileNetV3Large_1/activation_2_1/Const", "op": "Const", "attr": {"value": {"tensor": {"dtype": "DT_FLOAT", "tensorShape": {}}}, "dtype": {"type": "DT_FLOAT"}}}, {"name": "StatefulPartitionedCall/sequential_1/MobileNetV3Large_1/expanded_conv_6_project_1/convolution/merged_input", "op": "Const", "attr": {"value": {"tensor": {"dtype": "DT_FLOAT", "tensorShape": {"dim": [{"size": "1"}, {"size": "1"}, {"size": "240"}, {"size": "80"}]}}}, "dtype": {"type": "DT_FLOAT"}}}, {"name": "StatefulPartitionedCall/sequential_1/MobileNetV3Large_1/expanded_conv_6_project_bn_1/batchnorm/sub", "op": "Const", "attr": {"value": {"tensor": {"dtype": "DT_FLOAT", "tensorShape": {"dim": [{"size": "80"}]}}}, "dtype": {"type": "DT_FLOAT"}}}, {"name": "StatefulPartitionedCall/sequential_1/MobileNetV3Large_1/expanded_conv_7_expand_1/convolution/merged_input", "op": "Const", "attr": {"value": {"tensor": {"dtype": "DT_FLOAT", "tensorShape": {"dim": [{"size": "1"}, {"size": "1"}, {"size": "80"}, {"size": "200"}]}}}, "dtype": {"type": "DT_FLOAT"}}}, {"name": "StatefulPartitionedCall/sequential_1/MobileNetV3Large_1/expanded_conv_7_expand_bn_1/batchnorm/sub", "op": "Const", "attr": {"value": {"tensor": {"dtype": "DT_FLOAT", "tensorShape": {"dim": [{"size": "200"}]}}}, "dtype": {"type": "DT_FLOAT"}}}, {"name": "StatefulPartitionedCall/sequential_1/MobileNetV3Large_1/activation_3_1/Const", "op": "Const", "attr": {"value": {"tensor": {"dtype": "DT_FLOAT", "tensorShape": {}}}, "dtype": {"type": "DT_FLOAT"}}}, {"name": "StatefulPartitionedCall/sequential_1/MobileNetV3Large_1/expanded_conv_7_depthwise_1/depthwise/ReadVariableOp", "op": "Const", "attr": {"value": {"tensor": {"dtype": "DT_FLOAT", "tensorShape": {"dim": [{"size": "3"}, {"size": "3"}, {"size": "200"}, {"size": "1"}]}}}, "dtype": {"type": "DT_FLOAT"}}}, {"name": "StatefulPartitionedCall/sequential_1/MobileNetV3Large_1/expanded_conv_7_depthwise_bn_1/batchnorm/mul", "op": "Const", "attr": {"value": {"tensor": {"dtype": "DT_FLOAT", "tensorShape": {"dim": [{"size": "200"}]}}}, "dtype": {"type": "DT_FLOAT"}}}, {"name": "StatefulPartitionedCall/sequential_1/MobileNetV3Large_1/expanded_conv_7_depthwise_bn_1/batchnorm/sub", "op": "Const", "attr": {"value": {"tensor": {"dtype": "DT_FLOAT", "tensorShape": {"dim": [{"size": "200"}]}}}, "dtype": {"type": "DT_FLOAT"}}}, {"name": "StatefulPartitionedCall/sequential_1/MobileNetV3Large_1/activation_4_1/Const", "op": "Const", "attr": {"value": {"tensor": {"dtype": "DT_FLOAT", "tensorShape": {}}}, "dtype": {"type": "DT_FLOAT"}}}, {"name": "StatefulPartitionedCall/sequential_1/MobileNetV3Large_1/expanded_conv_7_project_1/convolution/merged_input", "op": "Const", "attr": {"value": {"tensor": {"dtype": "DT_FLOAT", "tensorShape": {"dim": [{"size": "1"}, {"size": "1"}, {"size": "200"}, {"size": "80"}]}}}, "dtype": {"type": "DT_FLOAT"}}}, {"name": "StatefulPartitionedCall/sequential_1/MobileNetV3Large_1/expanded_conv_8_expand_1/convolution/merged_input", "op": "Const", "attr": {"value": {"tensor": {"dtype": "DT_FLOAT", "tensorShape": {"dim": [{"size": "1"}, {"size": "1"}, {"size": "80"}, {"size": "184"}]}}}, "dtype": {"type": "DT_FLOAT"}}}, {"name": "StatefulPartitionedCall/sequential_1/MobileNetV3Large_1/expanded_conv_8_expand_bn_1/batchnorm/sub", "op": "Const", "attr": {"value": {"tensor": {"dtype": "DT_FLOAT", "tensorShape": {"dim": [{"size": "184"}]}}}, "dtype": {"type": "DT_FLOAT"}}}, {"name": "StatefulPartitionedCall/sequential_1/MobileNetV3Large_1/activation_5_1/Const", "op": "Const", "attr": {"value": {"tensor": {"dtype": "DT_FLOAT", "tensorShape": {}}}, "dtype": {"type": "DT_FLOAT"}}}, {"name": "StatefulPartitionedCall/sequential_1/MobileNetV3Large_1/expanded_conv_8_depthwise_1/depthwise/ReadVariableOp", "op": "Const", "attr": {"value": {"tensor": {"dtype": "DT_FLOAT", "tensorShape": {"dim": [{"size": "3"}, {"size": "3"}, {"size": "184"}, {"size": "1"}]}}}, "dtype": {"type": "DT_FLOAT"}}}, {"name": "StatefulPartitionedCall/sequential_1/MobileNetV3Large_1/expanded_conv_8_depthwise_bn_1/batchnorm/mul", "op": "Const", "attr": {"value": {"tensor": {"dtype": "DT_FLOAT", "tensorShape": {"dim": [{"size": "184"}]}}}, "dtype": {"type": "DT_FLOAT"}}}, {"name": "StatefulPartitionedCall/sequential_1/MobileNetV3Large_1/expanded_conv_8_depthwise_bn_1/batchnorm/sub", "op": "Const", "attr": {"value": {"tensor": {"dtype": "DT_FLOAT", "tensorShape": {"dim": [{"size": "184"}]}}}, "dtype": {"type": "DT_FLOAT"}}}, {"name": "StatefulPartitionedCall/sequential_1/MobileNetV3Large_1/activation_6_1/Const", "op": "Const", "attr": {"value": {"tensor": {"dtype": "DT_FLOAT", "tensorShape": {}}}, "dtype": {"type": "DT_FLOAT"}}}, {"name": "StatefulPartitionedCall/sequential_1/MobileNetV3Large_1/expanded_conv_8_project_1/convolution/merged_input", "op": "Const", "attr": {"value": {"tensor": {"dtype": "DT_FLOAT", "tensorShape": {"dim": [{"size": "1"}, {"size": "1"}, {"size": "184"}, {"size": "80"}]}}}, "dtype": {"type": "DT_FLOAT"}}}, {"name": "StatefulPartitionedCall/sequential_1/MobileNetV3Large_1/expanded_conv_9_expand_1/convolution/merged_input", "op": "Const", "attr": {"value": {"tensor": {"dtype": "DT_FLOAT", "tensorShape": {"dim": [{"size": "1"}, {"size": "1"}, {"size": "80"}, {"size": "184"}]}}}, "dtype": {"type": "DT_FLOAT"}}}, {"name": "StatefulPartitionedCall/sequential_1/MobileNetV3Large_1/expanded_conv_9_expand_bn_1/batchnorm/sub", "op": "Const", "attr": {"value": {"tensor": {"dtype": "DT_FLOAT", "tensorShape": {"dim": [{"size": "184"}]}}}, "dtype": {"type": "DT_FLOAT"}}}, {"name": "StatefulPartitionedCall/sequential_1/MobileNetV3Large_1/activation_7_1/Const", "op": "Const", "attr": {"value": {"tensor": {"dtype": "DT_FLOAT", "tensorShape": {}}}, "dtype": {"type": "DT_FLOAT"}}}, {"name": "StatefulPartitionedCall/sequential_1/MobileNetV3Large_1/expanded_conv_9_depthwise_1/depthwise/ReadVariableOp", "op": "Const", "attr": {"value": {"tensor": {"dtype": "DT_FLOAT", "tensorShape": {"dim": [{"size": "3"}, {"size": "3"}, {"size": "184"}, {"size": "1"}]}}}, "dtype": {"type": "DT_FLOAT"}}}, {"name": "StatefulPartitionedCall/sequential_1/MobileNetV3Large_1/expanded_conv_9_depthwise_bn_1/batchnorm/mul", "op": "Const", "attr": {"value": {"tensor": {"dtype": "DT_FLOAT", "tensorShape": {"dim": [{"size": "184"}]}}}, "dtype": {"type": "DT_FLOAT"}}}, {"name": "StatefulPartitionedCall/sequential_1/MobileNetV3Large_1/expanded_conv_9_depthwise_bn_1/batchnorm/sub", "op": "Const", "attr": {"value": {"tensor": {"dtype": "DT_FLOAT", "tensorShape": {"dim": [{"size": "184"}]}}}, "dtype": {"type": "DT_FLOAT"}}}, {"name": "StatefulPartitionedCall/sequential_1/MobileNetV3Large_1/activation_8_1/Const", "op": "Const", "attr": {"value": {"tensor": {"dtype": "DT_FLOAT", "tensorShape": {}}}, "dtype": {"type": "DT_FLOAT"}}}, {"name": "StatefulPartitionedCall/sequential_1/MobileNetV3Large_1/expanded_conv_9_project_1/convolution/merged_input", "op": "Const", "attr": {"value": {"tensor": {"dtype": "DT_FLOAT", "tensorShape": {"dim": [{"size": "1"}, {"size": "1"}, {"size": "184"}, {"size": "80"}]}}}, "dtype": {"type": "DT_FLOAT"}}}, {"name": "StatefulPartitionedCall/sequential_1/MobileNetV3Large_1/expanded_conv_10_expand_1/convolution/merged_input", "op": "Const", "attr": {"value": {"tensor": {"dtype": "DT_FLOAT", "tensorShape": {"dim": [{"size": "1"}, {"size": "1"}, {"size": "80"}, {"size": "480"}]}}}, "dtype": {"type": "DT_FLOAT"}}}, {"name": "StatefulPartitionedCall/sequential_1/MobileNetV3Large_1/expanded_conv_10_expand_bn_1/batchnorm/sub", "op": "Const", "attr": {"value": {"tensor": {"dtype": "DT_FLOAT", "tensorShape": {"dim": [{"size": "480"}]}}}, "dtype": {"type": "DT_FLOAT"}}}, {"name": "StatefulPartitionedCall/sequential_1/MobileNetV3Large_1/activation_9_1/Const", "op": "Const", "attr": {"value": {"tensor": {"dtype": "DT_FLOAT", "tensorShape": {}}}, "dtype": {"type": "DT_FLOAT"}}}, {"name": "StatefulPartitionedCall/sequential_1/MobileNetV3Large_1/expanded_conv_10_depthwise_1/depthwise/ReadVariableOp", "op": "Const", "attr": {"value": {"tensor": {"dtype": "DT_FLOAT", "tensorShape": {"dim": [{"size": "3"}, {"size": "3"}, {"size": "480"}, {"size": "1"}]}}}, "dtype": {"type": "DT_FLOAT"}}}, {"name": "StatefulPartitionedCall/sequential_1/MobileNetV3Large_1/expanded_conv_10_depthwise_bn_1/batchnorm/mul", "op": "Const", "attr": {"value": {"tensor": {"dtype": "DT_FLOAT", "tensorShape": {"dim": [{"size": "480"}]}}}, "dtype": {"type": "DT_FLOAT"}}}, {"name": "StatefulPartitionedCall/sequential_1/MobileNetV3Large_1/expanded_conv_10_depthwise_bn_1/batchnorm/sub", "op": "Const", "attr": {"value": {"tensor": {"dtype": "DT_FLOAT", "tensorShape": {"dim": [{"size": "480"}]}}}, "dtype": {"type": "DT_FLOAT"}}}, {"name": "StatefulPartitionedCall/sequential_1/MobileNetV3Large_1/activation_10_1/Const", "op": "Const", "attr": {"value": {"tensor": {"dtype": "DT_FLOAT", "tensorShape": {}}}, "dtype": {"type": "DT_FLOAT"}}}, {"name": "StatefulPartitionedCall/sequential_1/MobileNetV3Large_1/expanded_conv_10_project_1/convolution/merged_input", "op": "Const", "attr": {"value": {"tensor": {"dtype": "DT_FLOAT", "tensorShape": {"dim": [{"size": "1"}, {"size": "1"}, {"size": "480"}, {"size": "112"}]}}}, "dtype": {"type": "DT_FLOAT"}}}, {"name": "StatefulPartitionedCall/sequential_1/MobileNetV3Large_1/expanded_conv_10_project_bn_1/batchnorm/sub", "op": "Const", "attr": {"value": {"tensor": {"dtype": "DT_FLOAT", "tensorShape": {"dim": [{"size": "112"}]}}}, "dtype": {"type": "DT_FLOAT"}}}, {"name": "StatefulPartitionedCall/sequential_1/MobileNetV3Large_1/expanded_conv_11_expand_1/convolution/merged_input", "op": "Const", "attr": {"value": {"tensor": {"dtype": "DT_FLOAT", "tensorShape": {"dim": [{"size": "1"}, {"size": "1"}, {"size": "112"}, {"size": "672"}]}}}, "dtype": {"type": "DT_FLOAT"}}}, {"name": "StatefulPartitionedCall/sequential_1/MobileNetV3Large_1/expanded_conv_11_expand_bn_1/batchnorm/sub", "op": "Const", "attr": {"value": {"tensor": {"dtype": "DT_FLOAT", "tensorShape": {"dim": [{"size": "672"}]}}}, "dtype": {"type": "DT_FLOAT"}}}, {"name": "StatefulPartitionedCall/sequential_1/MobileNetV3Large_1/activation_11_1/Const", "op": "Const", "attr": {"value": {"tensor": {"dtype": "DT_FLOAT", "tensorShape": {}}}, "dtype": {"type": "DT_FLOAT"}}}, {"name": "StatefulPartitionedCall/sequential_1/MobileNetV3Large_1/expanded_conv_11_depthwise_1/depthwise/ReadVariableOp", "op": "Const", "attr": {"value": {"tensor": {"dtype": "DT_FLOAT", "tensorShape": {"dim": [{"size": "3"}, {"size": "3"}, {"size": "672"}, {"size": "1"}]}}}, "dtype": {"type": "DT_FLOAT"}}}, {"name": "StatefulPartitionedCall/sequential_1/MobileNetV3Large_1/expanded_conv_11_depthwise_bn_1/batchnorm/mul", "op": "Const", "attr": {"value": {"tensor": {"dtype": "DT_FLOAT", "tensorShape": {"dim": [{"size": "672"}]}}}, "dtype": {"type": "DT_FLOAT"}}}, {"name": "StatefulPartitionedCall/sequential_1/MobileNetV3Large_1/expanded_conv_11_depthwise_bn_1/batchnorm/sub", "op": "Const", "attr": {"value": {"tensor": {"dtype": "DT_FLOAT", "tensorShape": {"dim": [{"size": "672"}]}}}, "dtype": {"type": "DT_FLOAT"}}}, {"name": "StatefulPartitionedCall/sequential_1/MobileNetV3Large_1/activation_12_1/Const", "op": "Const", "attr": {"value": {"tensor": {"dtype": "DT_FLOAT", "tensorShape": {}}}, "dtype": {"type": "DT_FLOAT"}}}, {"name": "StatefulPartitionedCall/sequential_1/MobileNetV3Large_1/expanded_conv_11_project_1/convolution/merged_input", "op": "Const", "attr": {"value": {"tensor": {"dtype": "DT_FLOAT", "tensorShape": {"dim": [{"size": "1"}, {"size": "1"}, {"size": "672"}, {"size": "112"}]}}}, "dtype": {"type": "DT_FLOAT"}}}, {"name": "StatefulPartitionedCall/sequential_1/MobileNetV3Large_1/expanded_conv_12_expand_1/convolution/merged_input", "op": "Const", "attr": {"value": {"tensor": {"dtype": "DT_FLOAT", "tensorShape": {"dim": [{"size": "1"}, {"size": "1"}, {"size": "112"}, {"size": "672"}]}}}, "dtype": {"type": "DT_FLOAT"}}}, {"name": "StatefulPartitionedCall/sequential_1/MobileNetV3Large_1/expanded_conv_12_expand_bn_1/batchnorm/sub", "op": "Const", "attr": {"value": {"tensor": {"dtype": "DT_FLOAT", "tensorShape": {"dim": [{"size": "672"}]}}}, "dtype": {"type": "DT_FLOAT"}}}, {"name": "StatefulPartitionedCall/sequential_1/MobileNetV3Large_1/activation_13_1/Const", "op": "Const", "attr": {"value": {"tensor": {"dtype": "DT_FLOAT", "tensorShape": {}}}, "dtype": {"type": "DT_FLOAT"}}}, {"name": "StatefulPartitionedCall/sequential_1/MobileNetV3Large_1/expanded_conv_12_depthwise_pad_1/Const", "op": "Const", "attr": {"value": {"tensor": {"dtype": "DT_INT32", "tensorShape": {"dim": [{"size": "4"}, {"size": "2"}]}}}, "dtype": {"type": "DT_INT32"}}}, {"name": "StatefulPartitionedCall/sequential_1/MobileNetV3Large_1/expanded_conv_12_depthwise_1/depthwise/ReadVariableOp", "op": "Const", "attr": {"value": {"tensor": {"dtype": "DT_FLOAT", "tensorShape": {"dim": [{"size": "5"}, {"size": "5"}, {"size": "672"}, {"size": "1"}]}}}, "dtype": {"type": "DT_FLOAT"}}}, {"name": "StatefulPartitionedCall/sequential_1/MobileNetV3Large_1/expanded_conv_12_depthwise_bn_1/batchnorm/mul", "op": "Const", "attr": {"value": {"tensor": {"dtype": "DT_FLOAT", "tensorShape": {"dim": [{"size": "672"}]}}}, "dtype": {"type": "DT_FLOAT"}}}, {"name": "StatefulPartitionedCall/sequential_1/MobileNetV3Large_1/expanded_conv_12_depthwise_bn_1/batchnorm/sub", "op": "Const", "attr": {"value": {"tensor": {"dtype": "DT_FLOAT", "tensorShape": {"dim": [{"size": "672"}]}}}, "dtype": {"type": "DT_FLOAT"}}}, {"name": "StatefulPartitionedCall/sequential_1/MobileNetV3Large_1/activation_14_1/Const", "op": "Const", "attr": {"value": {"tensor": {"dtype": "DT_FLOAT", "tensorShape": {}}}, "dtype": {"type": "DT_FLOAT"}}}, {"name": "StatefulPartitionedCall/sequential_1/MobileNetV3Large_1/expanded_conv_12_project_1/convolution/merged_input", "op": "Const", "attr": {"value": {"tensor": {"dtype": "DT_FLOAT", "tensorShape": {"dim": [{"size": "1"}, {"size": "1"}, {"size": "672"}, {"size": "160"}]}}}, "dtype": {"type": "DT_FLOAT"}}}, {"name": "StatefulPartitionedCall/sequential_1/MobileNetV3Large_1/expanded_conv_12_project_bn_1/batchnorm/sub", "op": "Const", "attr": {"value": {"tensor": {"dtype": "DT_FLOAT", "tensorShape": {"dim": [{"size": "160"}]}}}, "dtype": {"type": "DT_FLOAT"}}}, {"name": "StatefulPartitionedCall/sequential_1/MobileNetV3Large_1/expanded_conv_13_expand_1/convolution/merged_input", "op": "Const", "attr": {"value": {"tensor": {"dtype": "DT_FLOAT", "tensorShape": {"dim": [{"size": "1"}, {"size": "1"}, {"size": "160"}, {"size": "960"}]}}}, "dtype": {"type": "DT_FLOAT"}}}, {"name": "StatefulPartitionedCall/sequential_1/MobileNetV3Large_1/expanded_conv_13_expand_bn_1/batchnorm/sub", "op": "Const", "attr": {"value": {"tensor": {"dtype": "DT_FLOAT", "tensorShape": {"dim": [{"size": "960"}]}}}, "dtype": {"type": "DT_FLOAT"}}}, {"name": "StatefulPartitionedCall/sequential_1/MobileNetV3Large_1/activation_15_1/Const", "op": "Const", "attr": {"value": {"tensor": {"dtype": "DT_FLOAT", "tensorShape": {}}}, "dtype": {"type": "DT_FLOAT"}}}, {"name": "StatefulPartitionedCall/sequential_1/MobileNetV3Large_1/expanded_conv_13_depthwise_1/depthwise/ReadVariableOp", "op": "Const", "attr": {"value": {"tensor": {"dtype": "DT_FLOAT", "tensorShape": {"dim": [{"size": "5"}, {"size": "5"}, {"size": "960"}, {"size": "1"}]}}}, "dtype": {"type": "DT_FLOAT"}}}, {"name": "StatefulPartitionedCall/sequential_1/MobileNetV3Large_1/expanded_conv_13_depthwise_bn_1/batchnorm/mul", "op": "Const", "attr": {"value": {"tensor": {"dtype": "DT_FLOAT", "tensorShape": {"dim": [{"size": "960"}]}}}, "dtype": {"type": "DT_FLOAT"}}}, {"name": "StatefulPartitionedCall/sequential_1/MobileNetV3Large_1/expanded_conv_13_depthwise_bn_1/batchnorm/sub", "op": "Const", "attr": {"value": {"tensor": {"dtype": "DT_FLOAT", "tensorShape": {"dim": [{"size": "960"}]}}}, "dtype": {"type": "DT_FLOAT"}}}, {"name": "StatefulPartitionedCall/sequential_1/MobileNetV3Large_1/activation_16_1/Const", "op": "Const", "attr": {"value": {"tensor": {"dtype": "DT_FLOAT", "tensorShape": {}}}, "dtype": {"type": "DT_FLOAT"}}}, {"name": "StatefulPartitionedCall/sequential_1/MobileNetV3Large_1/expanded_conv_13_project_1/convolution/merged_input", "op": "Const", "attr": {"value": {"tensor": {"dtype": "DT_FLOAT", "tensorShape": {"dim": [{"size": "1"}, {"size": "1"}, {"size": "960"}, {"size": "160"}]}}}, "dtype": {"type": "DT_FLOAT"}}}, {"name": "StatefulPartitionedCall/sequential_1/MobileNetV3Large_1/expanded_conv_14_expand_1/convolution/merged_input", "op": "Const", "attr": {"value": {"tensor": {"dtype": "DT_FLOAT", "tensorShape": {"dim": [{"size": "1"}, {"size": "1"}, {"size": "160"}, {"size": "960"}]}}}, "dtype": {"type": "DT_FLOAT"}}}, {"name": "StatefulPartitionedCall/sequential_1/MobileNetV3Large_1/expanded_conv_14_expand_bn_1/batchnorm/sub", "op": "Const", "attr": {"value": {"tensor": {"dtype": "DT_FLOAT", "tensorShape": {"dim": [{"size": "960"}]}}}, "dtype": {"type": "DT_FLOAT"}}}, {"name": "StatefulPartitionedCall/sequential_1/MobileNetV3Large_1/activation_17_1/Const", "op": "Const", "attr": {"value": {"tensor": {"dtype": "DT_FLOAT", "tensorShape": {}}}, "dtype": {"type": "DT_FLOAT"}}}, {"name": "StatefulPartitionedCall/sequential_1/MobileNetV3Large_1/expanded_conv_14_depthwise_1/depthwise/ReadVariableOp", "op": "Const", "attr": {"value": {"tensor": {"dtype": "DT_FLOAT", "tensorShape": {"dim": [{"size": "5"}, {"size": "5"}, {"size": "960"}, {"size": "1"}]}}}, "dtype": {"type": "DT_FLOAT"}}}, {"name": "StatefulPartitionedCall/sequential_1/MobileNetV3Large_1/expanded_conv_14_depthwise_bn_1/batchnorm/mul", "op": "Const", "attr": {"value": {"tensor": {"dtype": "DT_FLOAT", "tensorShape": {"dim": [{"size": "960"}]}}}, "dtype": {"type": "DT_FLOAT"}}}, {"name": "StatefulPartitionedCall/sequential_1/MobileNetV3Large_1/expanded_conv_14_depthwise_bn_1/batchnorm/sub", "op": "Const", "attr": {"value": {"tensor": {"dtype": "DT_FLOAT", "tensorShape": {"dim": [{"size": "960"}]}}}, "dtype": {"type": "DT_FLOAT"}}}, {"name": "StatefulPartitionedCall/sequential_1/MobileNetV3Large_1/activation_18_1/Const", "op": "Const", "attr": {"value": {"tensor": {"dtype": "DT_FLOAT", "tensorShape": {}}}, "dtype": {"type": "DT_FLOAT"}}}, {"name": "StatefulPartitionedCall/sequential_1/MobileNetV3Large_1/expanded_conv_14_project_1/convolution/merged_input", "op": "Const", "attr": {"value": {"tensor": {"dtype": "DT_FLOAT", "tensorShape": {"dim": [{"size": "1"}, {"size": "1"}, {"size": "960"}, {"size": "160"}]}}}, "dtype": {"type": "DT_FLOAT"}}}, {"name": "StatefulPartitionedCall/sequential_1/MobileNetV3Large_1/conv_1_2/convolution/merged_input", "op": "Const", "attr": {"value": {"tensor": {"dtype": "DT_FLOAT", "tensorShape": {"dim": [{"size": "1"}, {"size": "1"}, {"size": "160"}, {"size": "960"}]}}}, "dtype": {"type": "DT_FLOAT"}}}, {"name": "StatefulPartitionedCall/sequential_1/MobileNetV3Large_1/conv_1_bn_1/batchnorm/sub", "op": "Const", "attr": {"value": {"tensor": {"dtype": "DT_FLOAT", "tensorShape": {"dim": [{"size": "960"}]}}}, "dtype": {"type": "DT_FLOAT"}}}, {"name": "StatefulPartitionedCall/sequential_1/MobileNetV3Large_1/activation_19_1/Const", "op": "Const", "attr": {"value": {"tensor": {"dtype": "DT_FLOAT", "tensorShape": {}}}, "dtype": {"type": "DT_FLOAT"}}}, {"name": "StatefulPartitionedCall/sequential_1/conv2d_1/convolution/ReadVariableOp", "op": "Const", "attr": {"value": {"tensor": {"dtype": "DT_FLOAT", "tensorShape": {"dim": [{"size": "3"}, {"size": "3"}, {"size": "960"}, {"size": "64"}]}}}, "dtype": {"type": "DT_FLOAT"}}}, {"name": "StatefulPartitionedCall/sequential_1/conv2d_1/Squeeze", "op": "Const", "attr": {"value": {"tensor": {"dtype": "DT_FLOAT", "tensorShape": {"dim": [{"size": "64"}]}}}, "dtype": {"type": "DT_FLOAT"}}}, {"name": "StatefulPartitionedCall/sequential_1/conv2d_1_2/convolution/ReadVariableOp", "op": "Const", "attr": {"value": {"tensor": {"dtype": "DT_FLOAT", "tensorShape": {"dim": [{"size": "3"}, {"size": "3"}, {"size": "64"}, {"size": "128"}]}}}, "dtype": {"type": "DT_FLOAT"}}}, {"name": "StatefulPartitionedCall/sequential_1/conv2d_1_2/Squeeze", "op": "Const", "attr": {"value": {"tensor": {"dtype": "DT_FLOAT", "tensorShape": {"dim": [{"size": "128"}]}}}, "dtype": {"type": "DT_FLOAT"}}}, {"name": "StatefulPartitionedCall/sequential_1/flatten_1/Reshape/shape", "op": "Const", "attr": {"value": {"tensor": {"dtype": "DT_INT32", "tensorShape": {"dim": [{"size": "2"}]}}}, "dtype": {"type": "DT_INT32"}}}, {"name": "StatefulPartitionedCall/sequential_1/dense_1/Cast/ReadVariableOp", "op": "Const", "attr": {"value": {"tensor": {"dtype": "DT_FLOAT", "tensorShape": {"dim": [{"size": "128"}, {"size": "14"}]}}}, "dtype": {"type": "DT_FLOAT"}}}, {"name": "StatefulPartitionedCall/sequential_1/dense_1/BiasAdd/ReadVariableOp", "op": "Const", "attr": {"value": {"tensor": {"dtype": "DT_FLOAT", "tensorShape": {"dim": [{"size": "14"}]}}}, "dtype": {"type": "DT_FLOAT"}}}, {"name": "keras_tensor_203", "op": "Placeholder", "attr": {"shape": {"shape": {"dim": [{"size": "-1"}, {"size": "224"}, {"size": "224"}, {"size": "3"}]}}, "dtype": {"type": "DT_FLOAT"}}}, {"name": "StatefulPartitionedCall/sequential_1/MobileNetV3Large_1/rescaling_1/mul", "op": "Mul", "input": ["keras_tensor_203", "StatefulPartitionedCall/sequential_1/MobileNetV3Large_1/rescaling_1/Cast/x"], "attr": {"T": {"type": "DT_FLOAT"}}}, {"name": "StatefulPartitionedCall/sequential_1/MobileNetV3Large_1/rescaling_1/add", "op": "AddV2", "input": ["StatefulPartitionedCall/sequential_1/MobileNetV3Large_1/rescaling_1/mul", "StatefulPartitionedCall/sequential_1/MobileNetV3Large_1/rescaling_1/Cast_1/x"], "attr": {"T": {"type": "DT_FLOAT"}}}, {"name": "StatefulPartitionedCall/sequential_1/MobileNetV3Large_1/conv_bn_1/batchnorm/add_1", "op": "_FusedConv2D", "input": ["StatefulPartitionedCall/sequential_1/MobileNetV3Large_1/rescaling_1/add", "StatefulPartitionedCall/sequential_1/MobileNetV3Large_1/conv_1/convolution/merged_input", "StatefulPartitionedCall/sequential_1/MobileNetV3Large_1/conv_bn_1/batchnorm/sub"], "device": "/device:CPU:0", "attr": {"num_host_args": {"i": "0"}, "data_format": {"s": "TkhXQw=="}, "filter_format": {"s": "SFdJTw=="}, "strides": {"list": {"i": ["1", "2", "2", "1"]}}, "num_args": {"i": "1"}, "fused_ops": {"list": {"s": ["Qmlhc0FkZA=="]}}, "TArgs": {"list": {"type": ["DT_FLOAT"]}}, "padding": {"s": "U0FNRQ=="}, "use_cudnn_on_gpu": {"b": true}, "leakyrelu_alpha": {"f": 0.2}, "epsilon": {"f": 0.0}, "T": {"type": "DT_FLOAT"}, "explicit_paddings": {"list": {}}, "dilations": {"list": {"i": ["1", "1", "1", "1"]}}}}, {"name": "StatefulPartitionedCall/sequential_1/MobileNetV3Large_1/activation_1/truediv", "op": "Mul", "input": ["ConstantFolding/StatefulPartitionedCall/sequential_1/MobileNetV3Large_1/activation_1/truediv_recip", "StatefulPartitionedCall/sequential_1/MobileNetV3Large_1/conv_bn_1/batchnorm/add_1"], "attr": {"_grappler_ArithmeticOptimizer_MinimizeBroadcasts": {"b": true}, "T": {"type": "DT_FLOAT"}}}, {"name": "StatefulPartitionedCall/sequential_1/MobileNetV3Large_1/activation_1/add", "op": "AddV2", "input": ["StatefulPartitionedCall/sequential_1/MobileNetV3Large_1/conv_bn_1/batchnorm/add_1", "StatefulPartitionedCall/sequential_1/MobileNetV3Large_1/activation_1/Const"], "attr": {"T": {"type": "DT_FLOAT"}}}, {"name": "StatefulPartitionedCall/sequential_1/MobileNetV3Large_1/activation_1/Relu6", "op": "Relu6", "input": ["StatefulPartitionedCall/sequential_1/MobileNetV3Large_1/activation_1/add"], "attr": {"T": {"type": "DT_FLOAT"}}}, {"name": "StatefulPartitionedCall/sequential_1/MobileNetV3Large_1/activation_1/mul", "op": "Mul", "input": ["StatefulPartitionedCall/sequential_1/MobileNetV3Large_1/activation_1/truediv", "StatefulPartitionedCall/sequential_1/MobileNetV3Large_1/activation_1/Relu6"], "attr": {"_grappler_ArithmeticOptimizer_MinimizeBroadcasts": {"b": true}, "T": {"type": "DT_FLOAT"}}}, {"name": "StatefulPartitionedCall/sequential_1/MobileNetV3Large_1/expanded_conv_depthwise_1/depthwise", "op": "DepthwiseConv2dNative", "input": ["StatefulPartitionedCall/sequential_1/MobileNetV3Large_1/activation_1/mul", "StatefulPartitionedCall/sequential_1/MobileNetV3Large_1/expanded_conv_depthwise_1/depthwise/ReadVariableOp"], "attr": {"padding": {"s": "U0FNRQ=="}, "data_format": {"s": "TkhXQw=="}, "T": {"type": "DT_FLOAT"}, "explicit_paddings": {"list": {}}, "dilations": {"list": {"i": ["1", "1", "1", "1"]}}, "strides": {"list": {"i": ["1", "1", "1", "1"]}}}}, {"name": "StatefulPartitionedCall/sequential_1/MobileNetV3Large_1/expanded_conv_depthwise_bn_1/batchnorm/mul_1", "op": "Mul", "input": ["StatefulPartitionedCall/sequential_1/MobileNetV3Large_1/expanded_conv_depthwise_1/depthwise", "StatefulPartitionedCall/sequential_1/MobileNetV3Large_1/expanded_conv_depthwise_bn_1/batchnorm/mul"], "attr": {"T": {"type": "DT_FLOAT"}}}, {"name": "StatefulPartitionedCall/sequential_1/MobileNetV3Large_1/expanded_conv_depthwise_bn_1/batchnorm/add_1", "op": "AddV2", "input": ["StatefulPartitionedCall/sequential_1/MobileNetV3Large_1/expanded_conv_depthwise_bn_1/batchnorm/mul_1", "StatefulPartitionedCall/sequential_1/MobileNetV3Large_1/expanded_conv_depthwise_bn_1/batchnorm/sub"], "attr": {"T": {"type": "DT_FLOAT"}}}, {"name": "StatefulPartitionedCall/sequential_1/MobileNetV3Large_1/re_lu_1/Relu", "op": "Relu", "input": ["StatefulPartitionedCall/sequential_1/MobileNetV3Large_1/expanded_conv_depthwise_bn_1/batchnorm/add_1"], "attr": {"T": {"type": "DT_FLOAT"}}}, {"name": "StatefulPartitionedCall/sequential_1/MobileNetV3Large_1/expanded_conv_project_bn_1/batchnorm/mul_1", "op": "Conv2D", "input": ["StatefulPartitionedCall/sequential_1/MobileNetV3Large_1/re_lu_1/Relu", "StatefulPartitionedCall/sequential_1/MobileNetV3Large_1/expanded_conv_project_1/convolution/merged_input"], "device": "/device:CPU:0", "attr": {"padding": {"s": "U0FNRQ=="}, "data_format": {"s": "TkhXQw=="}, "strides": {"list": {"i": ["1", "1", "1", "1"]}}, "use_cudnn_on_gpu": {"b": true}, "T": {"type": "DT_FLOAT"}, "explicit_paddings": {"list": {}}, "dilations": {"list": {"i": ["1", "1", "1", "1"]}}}}, {"name": "StatefulPartitionedCall/sequential_1/MobileNetV3Large_1/expanded_conv_add_1/ArithmeticOptimizer/AddOpsRewrite_Leaf_1_Add", "op": "AddN", "input": ["StatefulPartitionedCall/sequential_1/MobileNetV3Large_1/activation_1/mul", "StatefulPartitionedCall/sequential_1/MobileNetV3Large_1/expanded_conv_project_bn_1/batchnorm/mul_1"], "attr": {"N": {"i": "2"}, "T": {"type": "DT_FLOAT"}, "_grappler_ArithmeticOptimizer_AddOpsRewriteStage": {"b": true}}}, {"name": "StatefulPartitionedCall/sequential_1/MobileNetV3Large_1/expanded_conv_add_1/ArithmeticOptimizer/AddOpsRewrite_Add", "op": "AddV2", "input": ["StatefulPartitionedCall/sequential_1/MobileNetV3Large_1/expanded_conv_project_bn_1/batchnorm/sub", "StatefulPartitionedCall/sequential_1/MobileNetV3Large_1/expanded_conv_add_1/ArithmeticOptimizer/AddOpsRewrite_Leaf_1_Add"], "attr": {"T": {"type": "DT_FLOAT"}, "_grappler_ArithmeticOptimizer_AddOpsRewriteStage": {"b": true}}}, {"name": "StatefulPartitionedCall/sequential_1/MobileNetV3Large_1/re_lu_1_2/Relu", "op": "_FusedConv2D", "input": ["StatefulPartitionedCall/sequential_1/MobileNetV3Large_1/expanded_conv_add_1/ArithmeticOptimizer/AddOpsRewrite_Add", "StatefulPartitionedCall/sequential_1/MobileNetV3Large_1/expanded_conv_1_expand_1/convolution/merged_input", "StatefulPartitionedCall/sequential_1/MobileNetV3Large_1/expanded_conv_1_expand_bn_1/batchnorm/sub"], "device": "/device:CPU:0", "attr": {"num_host_args": {"i": "0"}, "data_format": {"s": "TkhXQw=="}, "filter_format": {"s": "SFdJTw=="}, "strides": {"list": {"i": ["1", "1", "1", "1"]}}, "num_args": {"i": "1"}, "fused_ops": {"list": {"s": ["Qmlhc0FkZA==", "UmVsdQ=="]}}, "TArgs": {"list": {"type": ["DT_FLOAT"]}}, "padding": {"s": "U0FNRQ=="}, "use_cudnn_on_gpu": {"b": true}, "leakyrelu_alpha": {"f": 0.2}, "epsilon": {"f": 0.0}, "T": {"type": "DT_FLOAT"}, "explicit_paddings": {"list": {}}, "dilations": {"list": {"i": ["1", "1", "1", "1"]}}}}, {"name": "StatefulPartitionedCall/sequential_1/MobileNetV3Large_1/expanded_conv_1_depthwise_pad_1/Pad", "op": "Pad", "input": ["StatefulPartitionedCall/sequential_1/MobileNetV3Large_1/re_lu_1_2/Relu", "StatefulPartitionedCall/sequential_1/MobileNetV3Large_1/expanded_conv_1_depthwise_pad_1/Const"], "attr": {"Tpaddings": {"type": "DT_INT32"}, "T": {"type": "DT_FLOAT"}}}, {"name": "StatefulPartitionedCall/sequential_1/MobileNetV3Large_1/expanded_conv_1_depthwise_1/depthwise", "op": "DepthwiseConv2dNative", "input": ["StatefulPartitionedCall/sequential_1/MobileNetV3Large_1/expanded_conv_1_depthwise_pad_1/Pad", "StatefulPartitionedCall/sequential_1/MobileNetV3Large_1/expanded_conv_1_depthwise_1/depthwise/ReadVariableOp"], "attr": {"padding": {"s": "VkFMSUQ="}, "data_format": {"s": "TkhXQw=="}, "T": {"type": "DT_FLOAT"}, "explicit_paddings": {"list": {}}, "dilations": {"list": {"i": ["1", "1", "1", "1"]}}, "strides": {"list": {"i": ["1", "2", "2", "1"]}}}}, {"name": "StatefulPartitionedCall/sequential_1/MobileNetV3Large_1/expanded_conv_1_depthwise_bn_1/batchnorm/mul_1", "op": "Mul", "input": ["StatefulPartitionedCall/sequential_1/MobileNetV3Large_1/expanded_conv_1_depthwise_1/depthwise", "StatefulPartitionedCall/sequential_1/MobileNetV3Large_1/expanded_conv_1_depthwise_bn_1/batchnorm/mul"], "attr": {"T": {"type": "DT_FLOAT"}}}, {"name": "StatefulPartitionedCall/sequential_1/MobileNetV3Large_1/expanded_conv_1_depthwise_bn_1/batchnorm/add_1", "op": "AddV2", "input": ["StatefulPartitionedCall/sequential_1/MobileNetV3Large_1/expanded_conv_1_depthwise_bn_1/batchnorm/mul_1", "StatefulPartitionedCall/sequential_1/MobileNetV3Large_1/expanded_conv_1_depthwise_bn_1/batchnorm/sub"], "attr": {"T": {"type": "DT_FLOAT"}}}, {"name": "StatefulPartitionedCall/sequential_1/MobileNetV3Large_1/re_lu_2_1/Relu", "op": "Relu", "input": ["StatefulPartitionedCall/sequential_1/MobileNetV3Large_1/expanded_conv_1_depthwise_bn_1/batchnorm/add_1"], "attr": {"T": {"type": "DT_FLOAT"}}}, {"name": "StatefulPartitionedCall/sequential_1/MobileNetV3Large_1/expanded_conv_1_project_bn_1/batchnorm/add_1", "op": "_FusedConv2D", "input": ["StatefulPartitionedCall/sequential_1/MobileNetV3Large_1/re_lu_2_1/Relu", "StatefulPartitionedCall/sequential_1/MobileNetV3Large_1/expanded_conv_1_project_1/convolution/merged_input", "StatefulPartitionedCall/sequential_1/MobileNetV3Large_1/expanded_conv_1_project_bn_1/batchnorm/sub"], "device": "/device:CPU:0", "attr": {"num_host_args": {"i": "0"}, "data_format": {"s": "TkhXQw=="}, "filter_format": {"s": "SFdJTw=="}, "fused_ops": {"list": {"s": ["Qmlhc0FkZA=="]}}, "num_args": {"i": "1"}, "strides": {"list": {"i": ["1", "1", "1", "1"]}}, "TArgs": {"list": {"type": ["DT_FLOAT"]}}, "padding": {"s": "U0FNRQ=="}, "use_cudnn_on_gpu": {"b": true}, "leakyrelu_alpha": {"f": 0.2}, "epsilon": {"f": 0.0}, "T": {"type": "DT_FLOAT"}, "explicit_paddings": {"list": {}}, "dilations": {"list": {"i": ["1", "1", "1", "1"]}}}}, {"name": "StatefulPartitionedCall/sequential_1/MobileNetV3Large_1/re_lu_3_1/Relu", "op": "_FusedConv2D", "input": ["StatefulPartitionedCall/sequential_1/MobileNetV3Large_1/expanded_conv_1_project_bn_1/batchnorm/add_1", "StatefulPartitionedCall/sequential_1/MobileNetV3Large_1/expanded_conv_2_expand_1/convolution/merged_input", "StatefulPartitionedCall/sequential_1/MobileNetV3Large_1/expanded_conv_2_expand_bn_1/batchnorm/sub"], "device": "/device:CPU:0", "attr": {"num_host_args": {"i": "0"}, "data_format": {"s": "TkhXQw=="}, "filter_format": {"s": "SFdJTw=="}, "fused_ops": {"list": {"s": ["Qmlhc0FkZA==", "UmVsdQ=="]}}, "num_args": {"i": "1"}, "strides": {"list": {"i": ["1", "1", "1", "1"]}}, "TArgs": {"list": {"type": ["DT_FLOAT"]}}, "padding": {"s": "U0FNRQ=="}, "use_cudnn_on_gpu": {"b": true}, "leakyrelu_alpha": {"f": 0.2}, "epsilon": {"f": 0.0}, "T": {"type": "DT_FLOAT"}, "explicit_paddings": {"list": {}}, "dilations": {"list": {"i": ["1", "1", "1", "1"]}}}}, {"name": "StatefulPartitionedCall/sequential_1/MobileNetV3Large_1/expanded_conv_2_depthwise_1/depthwise", "op": "DepthwiseConv2dNative", "input": ["StatefulPartitionedCall/sequential_1/MobileNetV3Large_1/re_lu_3_1/Relu", "StatefulPartitionedCall/sequential_1/MobileNetV3Large_1/expanded_conv_2_depthwise_1/depthwise/ReadVariableOp"], "attr": {"padding": {"s": "U0FNRQ=="}, "data_format": {"s": "TkhXQw=="}, "T": {"type": "DT_FLOAT"}, "explicit_paddings": {"list": {}}, "dilations": {"list": {"i": ["1", "1", "1", "1"]}}, "strides": {"list": {"i": ["1", "1", "1", "1"]}}}}, {"name": "StatefulPartitionedCall/sequential_1/MobileNetV3Large_1/expanded_conv_2_depthwise_bn_1/batchnorm/mul_1", "op": "Mul", "input": ["StatefulPartitionedCall/sequential_1/MobileNetV3Large_1/expanded_conv_2_depthwise_1/depthwise", "StatefulPartitionedCall/sequential_1/MobileNetV3Large_1/expanded_conv_2_depthwise_bn_1/batchnorm/mul"], "attr": {"T": {"type": "DT_FLOAT"}}}, {"name": "StatefulPartitionedCall/sequential_1/MobileNetV3Large_1/expanded_conv_2_depthwise_bn_1/batchnorm/add_1", "op": "AddV2", "input": ["StatefulPartitionedCall/sequential_1/MobileNetV3Large_1/expanded_conv_2_depthwise_bn_1/batchnorm/mul_1", "StatefulPartitionedCall/sequential_1/MobileNetV3Large_1/expanded_conv_2_depthwise_bn_1/batchnorm/sub"], "attr": {"T": {"type": "DT_FLOAT"}}}, {"name": "StatefulPartitionedCall/sequential_1/MobileNetV3Large_1/re_lu_4_1/Relu", "op": "Relu", "input": ["StatefulPartitionedCall/sequential_1/MobileNetV3Large_1/expanded_conv_2_depthwise_bn_1/batchnorm/add_1"], "attr": {"T": {"type": "DT_FLOAT"}}}, {"name": "StatefulPartitionedCall/sequential_1/MobileNetV3Large_1/expanded_conv_2_project_bn_1/batchnorm/mul_1", "op": "Conv2D", "input": ["StatefulPartitionedCall/sequential_1/MobileNetV3Large_1/re_lu_4_1/Relu", "StatefulPartitionedCall/sequential_1/MobileNetV3Large_1/expanded_conv_2_project_1/convolution/merged_input"], "device": "/device:CPU:0", "attr": {"padding": {"s": "U0FNRQ=="}, "data_format": {"s": "TkhXQw=="}, "strides": {"list": {"i": ["1", "1", "1", "1"]}}, "use_cudnn_on_gpu": {"b": true}, "T": {"type": "DT_FLOAT"}, "explicit_paddings": {"list": {}}, "dilations": {"list": {"i": ["1", "1", "1", "1"]}}}}, {"name": "StatefulPartitionedCall/sequential_1/MobileNetV3Large_1/expanded_conv_2_add_1/ArithmeticOptimizer/AddOpsRewrite_Leaf_1_Add", "op": "AddN", "input": ["StatefulPartitionedCall/sequential_1/MobileNetV3Large_1/expanded_conv_1_project_bn_1/batchnorm/add_1", "StatefulPartitionedCall/sequential_1/MobileNetV3Large_1/expanded_conv_2_project_bn_1/batchnorm/mul_1"], "attr": {"N": {"i": "2"}, "T": {"type": "DT_FLOAT"}, "_grappler_ArithmeticOptimizer_AddOpsRewriteStage": {"b": true}}}, {"name": "StatefulPartitionedCall/sequential_1/MobileNetV3Large_1/expanded_conv_2_add_1/ArithmeticOptimizer/AddOpsRewrite_Add", "op": "AddV2", "input": ["StatefulPartitionedCall/sequential_1/MobileNetV3Large_1/expanded_conv_2_project_bn_1/batchnorm/sub", "StatefulPartitionedCall/sequential_1/MobileNetV3Large_1/expanded_conv_2_add_1/ArithmeticOptimizer/AddOpsRewrite_Leaf_1_Add"], "attr": {"T": {"type": "DT_FLOAT"}, "_grappler_ArithmeticOptimizer_AddOpsRewriteStage": {"b": true}}}, {"name": "StatefulPartitionedCall/sequential_1/MobileNetV3Large_1/re_lu_5_1/Relu", "op": "_FusedConv2D", "input": ["StatefulPartitionedCall/sequential_1/MobileNetV3Large_1/expanded_conv_2_add_1/ArithmeticOptimizer/AddOpsRewrite_Add", "StatefulPartitionedCall/sequential_1/MobileNetV3Large_1/expanded_conv_3_expand_1/convolution/merged_input", "StatefulPartitionedCall/sequential_1/MobileNetV3Large_1/expanded_conv_3_expand_bn_1/batchnorm/sub"], "device": "/device:CPU:0", "attr": {"num_host_args": {"i": "0"}, "data_format": {"s": "TkhXQw=="}, "filter_format": {"s": "SFdJTw=="}, "fused_ops": {"list": {"s": ["Qmlhc0FkZA==", "UmVsdQ=="]}}, "num_args": {"i": "1"}, "strides": {"list": {"i": ["1", "1", "1", "1"]}}, "TArgs": {"list": {"type": ["DT_FLOAT"]}}, "padding": {"s": "U0FNRQ=="}, "use_cudnn_on_gpu": {"b": true}, "leakyrelu_alpha": {"f": 0.2}, "epsilon": {"f": 0.0}, "T": {"type": "DT_FLOAT"}, "explicit_paddings": {"list": {}}, "dilations": {"list": {"i": ["1", "1", "1", "1"]}}}}, {"name": "StatefulPartitionedCall/sequential_1/MobileNetV3Large_1/expanded_conv_3_depthwise_pad_1/Pad", "op": "Pad", "input": ["StatefulPartitionedCall/sequential_1/MobileNetV3Large_1/re_lu_5_1/Relu", "StatefulPartitionedCall/sequential_1/MobileNetV3Large_1/expanded_conv_3_depthwise_pad_1/Const"], "attr": {"Tpaddings": {"type": "DT_INT32"}, "T": {"type": "DT_FLOAT"}}}, {"name": "StatefulPartitionedCall/sequential_1/MobileNetV3Large_1/expanded_conv_3_depthwise_1/depthwise", "op": "DepthwiseConv2dNative", "input": ["StatefulPartitionedCall/sequential_1/MobileNetV3Large_1/expanded_conv_3_depthwise_pad_1/Pad", "StatefulPartitionedCall/sequential_1/MobileNetV3Large_1/expanded_conv_3_depthwise_1/depthwise/ReadVariableOp"], "attr": {"padding": {"s": "VkFMSUQ="}, "data_format": {"s": "TkhXQw=="}, "T": {"type": "DT_FLOAT"}, "explicit_paddings": {"list": {}}, "dilations": {"list": {"i": ["1", "1", "1", "1"]}}, "strides": {"list": {"i": ["1", "2", "2", "1"]}}}}, {"name": "StatefulPartitionedCall/sequential_1/MobileNetV3Large_1/expanded_conv_3_depthwise_bn_1/batchnorm/mul_1", "op": "Mul", "input": ["StatefulPartitionedCall/sequential_1/MobileNetV3Large_1/expanded_conv_3_depthwise_1/depthwise", "StatefulPartitionedCall/sequential_1/MobileNetV3Large_1/expanded_conv_3_depthwise_bn_1/batchnorm/mul"], "attr": {"T": {"type": "DT_FLOAT"}}}, {"name": "StatefulPartitionedCall/sequential_1/MobileNetV3Large_1/expanded_conv_3_depthwise_bn_1/batchnorm/add_1", "op": "AddV2", "input": ["StatefulPartitionedCall/sequential_1/MobileNetV3Large_1/expanded_conv_3_depthwise_bn_1/batchnorm/mul_1", "StatefulPartitionedCall/sequential_1/MobileNetV3Large_1/expanded_conv_3_depthwise_bn_1/batchnorm/sub"], "attr": {"T": {"type": "DT_FLOAT"}}}, {"name": "StatefulPartitionedCall/sequential_1/MobileNetV3Large_1/re_lu_6_1/Relu", "op": "Relu", "input": ["StatefulPartitionedCall/sequential_1/MobileNetV3Large_1/expanded_conv_3_depthwise_bn_1/batchnorm/add_1"], "attr": {"T": {"type": "DT_FLOAT"}}}, {"name": "StatefulPartitionedCall/sequential_1/MobileNetV3Large_1/expanded_conv_3_squeeze_excite_avg_pool_1/Mean", "op": "Mean", "input": ["StatefulPartitionedCall/sequential_1/MobileNetV3Large_1/re_lu_6_1/Relu", "StatefulPartitionedCall/sequential_1/MobileNetV3Large_1/expanded_conv_3_squeeze_excite_avg_pool_1/Mean/reduction_indices"], "attr": {"Tidx": {"type": "DT_INT32"}, "T": {"type": "DT_FLOAT"}, "keep_dims": {"b": true}}}, {"name": "StatefulPartitionedCall/sequential_1/MobileNetV3Large_1/expanded_conv_3_squeeze_excite_relu_1/Relu", "op": "_FusedConv2D", "input": ["StatefulPartitionedCall/sequential_1/MobileNetV3Large_1/expanded_conv_3_squeeze_excite_avg_pool_1/Mean", "StatefulPartitionedCall/sequential_1/MobileNetV3Large_1/expanded_conv_3_squeeze_excite_conv_1/convolution/ReadVariableOp", "StatefulPartitionedCall/sequential_1/MobileNetV3Large_1/expanded_conv_3_squeeze_excite_conv_1/Squeeze"], "device": "/device:CPU:0", "attr": {"num_host_args": {"i": "0"}, "data_format": {"s": "TkhXQw=="}, "filter_format": {"s": "SFdJTw=="}, "strides": {"list": {"i": ["1", "1", "1", "1"]}}, "num_args": {"i": "1"}, "fused_ops": {"list": {"s": ["Qmlhc0FkZA==", "UmVsdQ=="]}}, "TArgs": {"list": {"type": ["DT_FLOAT"]}}, "padding": {"s": "U0FNRQ=="}, "use_cudnn_on_gpu": {"b": true}, "leakyrelu_alpha": {"f": 0.2}, "epsilon": {"f": 0.0}, "T": {"type": "DT_FLOAT"}, "explicit_paddings": {"list": {}}, "dilations": {"list": {"i": ["1", "1", "1", "1"]}}}}, {"name": "StatefulPartitionedCall/sequential_1/MobileNetV3Large_1/expanded_conv_3_squeeze_excite_conv_1_2/BiasAdd", "op": "_FusedConv2D", "input": ["StatefulPartitionedCall/sequential_1/MobileNetV3Large_1/expanded_conv_3_squeeze_excite_relu_1/Relu", "StatefulPartitionedCall/sequential_1/MobileNetV3Large_1/expanded_conv_3_squeeze_excite_conv_1_2/convolution/ReadVariableOp", "StatefulPartitionedCall/sequential_1/MobileNetV3Large_1/expanded_conv_3_squeeze_excite_conv_1_2/Squeeze"], "device": "/device:CPU:0", "attr": {"num_host_args": {"i": "0"}, "data_format": {"s": "TkhXQw=="}, "filter_format": {"s": "SFdJTw=="}, "strides": {"list": {"i": ["1", "1", "1", "1"]}}, "num_args": {"i": "1"}, "fused_ops": {"list": {"s": ["Qmlhc0FkZA=="]}}, "TArgs": {"list": {"type": ["DT_FLOAT"]}}, "padding": {"s": "U0FNRQ=="}, "use_cudnn_on_gpu": {"b": true}, "leakyrelu_alpha": {"f": 0.2}, "epsilon": {"f": 0.0}, "T": {"type": "DT_FLOAT"}, "explicit_paddings": {"list": {}}, "dilations": {"list": {"i": ["1", "1", "1", "1"]}}}}, {"name": "StatefulPartitionedCall/sequential_1/MobileNetV3Large_1/Add", "op": "AddV2", "input": ["StatefulPartitionedCall/sequential_1/MobileNetV3Large_1/expanded_conv_3_squeeze_excite_conv_1_2/BiasAdd", "StatefulPartitionedCall/sequential_1/MobileNetV3Large_1/Const"], "attr": {"T": {"type": "DT_FLOAT"}}}, {"name": "StatefulPartitionedCall/sequential_1/MobileNetV3Large_1/re_lu_7_1/Relu6", "op": "Relu6", "input": ["StatefulPartitionedCall/sequential_1/MobileNetV3Large_1/Add"], "attr": {"T": {"type": "DT_FLOAT"}}}, {"name": "StatefulPartitionedCall/sequential_1/MobileNetV3Large_1/Mul", "op": "Mul", "input": ["StatefulPartitionedCall/sequential_1/MobileNetV3Large_1/Const_1", "StatefulPartitionedCall/sequential_1/MobileNetV3Large_1/re_lu_7_1/Relu6"], "attr": {"_grappler_ArithmeticOptimizer_MinimizeBroadcasts": {"b": true}, "T": {"type": "DT_FLOAT"}}}, {"name": "StatefulPartitionedCall/sequential_1/MobileNetV3Large_1/expanded_conv_3_squeeze_excite_mul_1/Mul", "op": "Mul", "input": ["StatefulPartitionedCall/sequential_1/MobileNetV3Large_1/Mul", "StatefulPartitionedCall/sequential_1/MobileNetV3Large_1/re_lu_6_1/Relu"], "attr": {"_grappler_ArithmeticOptimizer_MinimizeBroadcasts": {"b": true}, "T": {"type": "DT_FLOAT"}}}, {"name": "StatefulPartitionedCall/sequential_1/MobileNetV3Large_1/expanded_conv_3_project_bn_1/batchnorm/add_1", "op": "_FusedConv2D", "input": ["StatefulPartitionedCall/sequential_1/MobileNetV3Large_1/expanded_conv_3_squeeze_excite_mul_1/Mul", "StatefulPartitionedCall/sequential_1/MobileNetV3Large_1/expanded_conv_3_project_1/convolution/merged_input", "StatefulPartitionedCall/sequential_1/MobileNetV3Large_1/expanded_conv_3_project_bn_1/batchnorm/sub"], "device": "/device:CPU:0", "attr": {"num_host_args": {"i": "0"}, "data_format": {"s": "TkhXQw=="}, "filter_format": {"s": "SFdJTw=="}, "fused_ops": {"list": {"s": ["Qmlhc0FkZA=="]}}, "num_args": {"i": "1"}, "strides": {"list": {"i": ["1", "1", "1", "1"]}}, "TArgs": {"list": {"type": ["DT_FLOAT"]}}, "padding": {"s": "U0FNRQ=="}, "use_cudnn_on_gpu": {"b": true}, "leakyrelu_alpha": {"f": 0.2}, "epsilon": {"f": 0.0}, "T": {"type": "DT_FLOAT"}, "explicit_paddings": {"list": {}}, "dilations": {"list": {"i": ["1", "1", "1", "1"]}}}}, {"name": "StatefulPartitionedCall/sequential_1/MobileNetV3Large_1/re_lu_8_1/Relu", "op": "_FusedConv2D", "input": ["StatefulPartitionedCall/sequential_1/MobileNetV3Large_1/expanded_conv_3_project_bn_1/batchnorm/add_1", "StatefulPartitionedCall/sequential_1/MobileNetV3Large_1/expanded_conv_4_expand_1/convolution/merged_input", "StatefulPartitionedCall/sequential_1/MobileNetV3Large_1/expanded_conv_4_expand_bn_1/batchnorm/sub"], "device": "/device:CPU:0", "attr": {"num_host_args": {"i": "0"}, "data_format": {"s": "TkhXQw=="}, "filter_format": {"s": "SFdJTw=="}, "strides": {"list": {"i": ["1", "1", "1", "1"]}}, "num_args": {"i": "1"}, "fused_ops": {"list": {"s": ["Qmlhc0FkZA==", "UmVsdQ=="]}}, "TArgs": {"list": {"type": ["DT_FLOAT"]}}, "padding": {"s": "U0FNRQ=="}, "use_cudnn_on_gpu": {"b": true}, "leakyrelu_alpha": {"f": 0.2}, "epsilon": {"f": 0.0}, "T": {"type": "DT_FLOAT"}, "explicit_paddings": {"list": {}}, "dilations": {"list": {"i": ["1", "1", "1", "1"]}}}}, {"name": "StatefulPartitionedCall/sequential_1/MobileNetV3Large_1/expanded_conv_4_depthwise_1/depthwise", "op": "DepthwiseConv2dNative", "input": ["StatefulPartitionedCall/sequential_1/MobileNetV3Large_1/re_lu_8_1/Relu", "StatefulPartitionedCall/sequential_1/MobileNetV3Large_1/expanded_conv_4_depthwise_1/depthwise/ReadVariableOp"], "attr": {"padding": {"s": "U0FNRQ=="}, "data_format": {"s": "TkhXQw=="}, "T": {"type": "DT_FLOAT"}, "explicit_paddings": {"list": {}}, "dilations": {"list": {"i": ["1", "1", "1", "1"]}}, "strides": {"list": {"i": ["1", "1", "1", "1"]}}}}, {"name": "StatefulPartitionedCall/sequential_1/MobileNetV3Large_1/expanded_conv_4_depthwise_bn_1/batchnorm/mul_1", "op": "Mul", "input": ["StatefulPartitionedCall/sequential_1/MobileNetV3Large_1/expanded_conv_4_depthwise_1/depthwise", "StatefulPartitionedCall/sequential_1/MobileNetV3Large_1/expanded_conv_4_depthwise_bn_1/batchnorm/mul"], "attr": {"T": {"type": "DT_FLOAT"}}}, {"name": "StatefulPartitionedCall/sequential_1/MobileNetV3Large_1/expanded_conv_4_depthwise_bn_1/batchnorm/add_1", "op": "AddV2", "input": ["StatefulPartitionedCall/sequential_1/MobileNetV3Large_1/expanded_conv_4_depthwise_bn_1/batchnorm/mul_1", "StatefulPartitionedCall/sequential_1/MobileNetV3Large_1/expanded_conv_4_depthwise_bn_1/batchnorm/sub"], "attr": {"T": {"type": "DT_FLOAT"}}}, {"name": "StatefulPartitionedCall/sequential_1/MobileNetV3Large_1/re_lu_9_1/Relu", "op": "Relu", "input": ["StatefulPartitionedCall/sequential_1/MobileNetV3Large_1/expanded_conv_4_depthwise_bn_1/batchnorm/add_1"], "attr": {"T": {"type": "DT_FLOAT"}}}, {"name": "StatefulPartitionedCall/sequential_1/MobileNetV3Large_1/expanded_conv_4_squeeze_excite_avg_pool_1/Mean", "op": "Mean", "input": ["StatefulPartitionedCall/sequential_1/MobileNetV3Large_1/re_lu_9_1/Relu", "StatefulPartitionedCall/sequential_1/MobileNetV3Large_1/expanded_conv_4_squeeze_excite_avg_pool_1/Mean/reduction_indices"], "attr": {"Tidx": {"type": "DT_INT32"}, "T": {"type": "DT_FLOAT"}, "keep_dims": {"b": true}}}, {"name": "StatefulPartitionedCall/sequential_1/MobileNetV3Large_1/expanded_conv_4_squeeze_excite_relu_1/Relu", "op": "_FusedConv2D", "input": ["StatefulPartitionedCall/sequential_1/MobileNetV3Large_1/expanded_conv_4_squeeze_excite_avg_pool_1/Mean", "StatefulPartitionedCall/sequential_1/MobileNetV3Large_1/expanded_conv_4_squeeze_excite_conv_1/convolution/ReadVariableOp", "StatefulPartitionedCall/sequential_1/MobileNetV3Large_1/expanded_conv_4_squeeze_excite_conv_1/Squeeze"], "device": "/device:CPU:0", "attr": {"num_host_args": {"i": "0"}, "data_format": {"s": "TkhXQw=="}, "filter_format": {"s": "SFdJTw=="}, "fused_ops": {"list": {"s": ["Qmlhc0FkZA==", "UmVsdQ=="]}}, "num_args": {"i": "1"}, "strides": {"list": {"i": ["1", "1", "1", "1"]}}, "TArgs": {"list": {"type": ["DT_FLOAT"]}}, "padding": {"s": "U0FNRQ=="}, "use_cudnn_on_gpu": {"b": true}, "leakyrelu_alpha": {"f": 0.2}, "epsilon": {"f": 0.0}, "T": {"type": "DT_FLOAT"}, "explicit_paddings": {"list": {}}, "dilations": {"list": {"i": ["1", "1", "1", "1"]}}}}, {"name": "StatefulPartitionedCall/sequential_1/MobileNetV3Large_1/expanded_conv_4_squeeze_excite_conv_1_2/BiasAdd", "op": "_FusedConv2D", "input": ["StatefulPartitionedCall/sequential_1/MobileNetV3Large_1/expanded_conv_4_squeeze_excite_relu_1/Relu", "StatefulPartitionedCall/sequential_1/MobileNetV3Large_1/expanded_conv_4_squeeze_excite_conv_1_2/convolution/ReadVariableOp", "StatefulPartitionedCall/sequential_1/MobileNetV3Large_1/expanded_conv_4_squeeze_excite_conv_1_2/Squeeze"], "device": "/device:CPU:0", "attr": {"num_host_args": {"i": "0"}, "data_format": {"s": "TkhXQw=="}, "filter_format": {"s": "SFdJTw=="}, "strides": {"list": {"i": ["1", "1", "1", "1"]}}, "num_args": {"i": "1"}, "fused_ops": {"list": {"s": ["Qmlhc0FkZA=="]}}, "TArgs": {"list": {"type": ["DT_FLOAT"]}}, "padding": {"s": "U0FNRQ=="}, "use_cudnn_on_gpu": {"b": true}, "leakyrelu_alpha": {"f": 0.2}, "epsilon": {"f": 0.0}, "T": {"type": "DT_FLOAT"}, "explicit_paddings": {"list": {}}, "dilations": {"list": {"i": ["1", "1", "1", "1"]}}}}, {"name": "StatefulPartitionedCall/sequential_1/MobileNetV3Large_1/Add_1", "op": "AddV2", "input": ["StatefulPartitionedCall/sequential_1/MobileNetV3Large_1/expanded_conv_4_squeeze_excite_conv_1_2/BiasAdd", "StatefulPartitionedCall/sequential_1/MobileNetV3Large_1/Const_2"], "attr": {"T": {"type": "DT_FLOAT"}}}, {"name": "StatefulPartitionedCall/sequential_1/MobileNetV3Large_1/re_lu_10_1/Relu6", "op": "Relu6", "input": ["StatefulPartitionedCall/sequential_1/MobileNetV3Large_1/Add_1"], "attr": {"T": {"type": "DT_FLOAT"}}}, {"name": "StatefulPartitionedCall/sequential_1/MobileNetV3Large_1/Mul_1", "op": "Mul", "input": ["StatefulPartitionedCall/sequential_1/MobileNetV3Large_1/Const_3", "StatefulPartitionedCall/sequential_1/MobileNetV3Large_1/re_lu_10_1/Relu6"], "attr": {"_grappler_ArithmeticOptimizer_MinimizeBroadcasts": {"b": true}, "T": {"type": "DT_FLOAT"}}}, {"name": "StatefulPartitionedCall/sequential_1/MobileNetV3Large_1/expanded_conv_4_squeeze_excite_mul_1/Mul", "op": "Mul", "input": ["StatefulPartitionedCall/sequential_1/MobileNetV3Large_1/Mul_1", "StatefulPartitionedCall/sequential_1/MobileNetV3Large_1/re_lu_9_1/Relu"], "attr": {"_grappler_ArithmeticOptimizer_MinimizeBroadcasts": {"b": true}, "T": {"type": "DT_FLOAT"}}}, {"name": "StatefulPartitionedCall/sequential_1/MobileNetV3Large_1/expanded_conv_4_project_bn_1/batchnorm/mul_1", "op": "Conv2D", "input": ["StatefulPartitionedCall/sequential_1/MobileNetV3Large_1/expanded_conv_4_squeeze_excite_mul_1/Mul", "StatefulPartitionedCall/sequential_1/MobileNetV3Large_1/expanded_conv_4_project_1/convolution/merged_input"], "device": "/device:CPU:0", "attr": {"padding": {"s": "U0FNRQ=="}, "data_format": {"s": "TkhXQw=="}, "use_cudnn_on_gpu": {"b": true}, "strides": {"list": {"i": ["1", "1", "1", "1"]}}, "T": {"type": "DT_FLOAT"}, "explicit_paddings": {"list": {}}, "dilations": {"list": {"i": ["1", "1", "1", "1"]}}}}, {"name": "StatefulPartitionedCall/sequential_1/MobileNetV3Large_1/expanded_conv_4_add_1/ArithmeticOptimizer/AddOpsRewrite_Leaf_1_Add", "op": "AddN", "input": ["StatefulPartitionedCall/sequential_1/MobileNetV3Large_1/expanded_conv_3_project_bn_1/batchnorm/add_1", "StatefulPartitionedCall/sequential_1/MobileNetV3Large_1/expanded_conv_4_project_bn_1/batchnorm/mul_1"], "attr": {"N": {"i": "2"}, "T": {"type": "DT_FLOAT"}, "_grappler_ArithmeticOptimizer_AddOpsRewriteStage": {"b": true}}}, {"name": "StatefulPartitionedCall/sequential_1/MobileNetV3Large_1/expanded_conv_4_add_1/ArithmeticOptimizer/AddOpsRewrite_Add", "op": "AddV2", "input": ["StatefulPartitionedCall/sequential_1/MobileNetV3Large_1/expanded_conv_4_project_bn_1/batchnorm/sub", "StatefulPartitionedCall/sequential_1/MobileNetV3Large_1/expanded_conv_4_add_1/ArithmeticOptimizer/AddOpsRewrite_Leaf_1_Add"], "attr": {"T": {"type": "DT_FLOAT"}, "_grappler_ArithmeticOptimizer_AddOpsRewriteStage": {"b": true}}}, {"name": "StatefulPartitionedCall/sequential_1/MobileNetV3Large_1/re_lu_11_1/Relu", "op": "_FusedConv2D", "input": ["StatefulPartitionedCall/sequential_1/MobileNetV3Large_1/expanded_conv_4_add_1/ArithmeticOptimizer/AddOpsRewrite_Add", "StatefulPartitionedCall/sequential_1/MobileNetV3Large_1/expanded_conv_5_expand_1/convolution/merged_input", "StatefulPartitionedCall/sequential_1/MobileNetV3Large_1/expanded_conv_5_expand_bn_1/batchnorm/sub"], "device": "/device:CPU:0", "attr": {"num_host_args": {"i": "0"}, "data_format": {"s": "TkhXQw=="}, "filter_format": {"s": "SFdJTw=="}, "fused_ops": {"list": {"s": ["Qmlhc0FkZA==", "UmVsdQ=="]}}, "num_args": {"i": "1"}, "strides": {"list": {"i": ["1", "1", "1", "1"]}}, "TArgs": {"list": {"type": ["DT_FLOAT"]}}, "padding": {"s": "U0FNRQ=="}, "use_cudnn_on_gpu": {"b": true}, "leakyrelu_alpha": {"f": 0.2}, "epsilon": {"f": 0.0}, "T": {"type": "DT_FLOAT"}, "explicit_paddings": {"list": {}}, "dilations": {"list": {"i": ["1", "1", "1", "1"]}}}}, {"name": "StatefulPartitionedCall/sequential_1/MobileNetV3Large_1/expanded_conv_5_depthwise_1/depthwise", "op": "DepthwiseConv2dNative", "input": ["StatefulPartitionedCall/sequential_1/MobileNetV3Large_1/re_lu_11_1/Relu", "StatefulPartitionedCall/sequential_1/MobileNetV3Large_1/expanded_conv_5_depthwise_1/depthwise/ReadVariableOp"], "attr": {"padding": {"s": "U0FNRQ=="}, "data_format": {"s": "TkhXQw=="}, "T": {"type": "DT_FLOAT"}, "explicit_paddings": {"list": {}}, "dilations": {"list": {"i": ["1", "1", "1", "1"]}}, "strides": {"list": {"i": ["1", "1", "1", "1"]}}}}, {"name": "StatefulPartitionedCall/sequential_1/MobileNetV3Large_1/expanded_conv_5_depthwise_bn_1/batchnorm/mul_1", "op": "Mul", "input": ["StatefulPartitionedCall/sequential_1/MobileNetV3Large_1/expanded_conv_5_depthwise_1/depthwise", "StatefulPartitionedCall/sequential_1/MobileNetV3Large_1/expanded_conv_5_depthwise_bn_1/batchnorm/mul"], "attr": {"T": {"type": "DT_FLOAT"}}}, {"name": "StatefulPartitionedCall/sequential_1/MobileNetV3Large_1/expanded_conv_5_depthwise_bn_1/batchnorm/add_1", "op": "AddV2", "input": ["StatefulPartitionedCall/sequential_1/MobileNetV3Large_1/expanded_conv_5_depthwise_bn_1/batchnorm/mul_1", "StatefulPartitionedCall/sequential_1/MobileNetV3Large_1/expanded_conv_5_depthwise_bn_1/batchnorm/sub"], "attr": {"T": {"type": "DT_FLOAT"}}}, {"name": "StatefulPartitionedCall/sequential_1/MobileNetV3Large_1/re_lu_12_1/Relu", "op": "Relu", "input": ["StatefulPartitionedCall/sequential_1/MobileNetV3Large_1/expanded_conv_5_depthwise_bn_1/batchnorm/add_1"], "attr": {"T": {"type": "DT_FLOAT"}}}, {"name": "StatefulPartitionedCall/sequential_1/MobileNetV3Large_1/expanded_conv_5_squeeze_excite_avg_pool_1/Mean", "op": "Mean", "input": ["StatefulPartitionedCall/sequential_1/MobileNetV3Large_1/re_lu_12_1/Relu", "StatefulPartitionedCall/sequential_1/MobileNetV3Large_1/expanded_conv_5_squeeze_excite_avg_pool_1/Mean/reduction_indices"], "attr": {"T": {"type": "DT_FLOAT"}, "Tidx": {"type": "DT_INT32"}, "keep_dims": {"b": true}}}, {"name": "StatefulPartitionedCall/sequential_1/MobileNetV3Large_1/expanded_conv_5_squeeze_excite_relu_1/Relu", "op": "_FusedConv2D", "input": ["StatefulPartitionedCall/sequential_1/MobileNetV3Large_1/expanded_conv_5_squeeze_excite_avg_pool_1/Mean", "StatefulPartitionedCall/sequential_1/MobileNetV3Large_1/expanded_conv_5_squeeze_excite_conv_1/convolution/ReadVariableOp", "StatefulPartitionedCall/sequential_1/MobileNetV3Large_1/expanded_conv_5_squeeze_excite_conv_1/Squeeze"], "device": "/device:CPU:0", "attr": {"num_host_args": {"i": "0"}, "data_format": {"s": "TkhXQw=="}, "filter_format": {"s": "SFdJTw=="}, "strides": {"list": {"i": ["1", "1", "1", "1"]}}, "num_args": {"i": "1"}, "fused_ops": {"list": {"s": ["Qmlhc0FkZA==", "UmVsdQ=="]}}, "TArgs": {"list": {"type": ["DT_FLOAT"]}}, "padding": {"s": "U0FNRQ=="}, "use_cudnn_on_gpu": {"b": true}, "leakyrelu_alpha": {"f": 0.2}, "epsilon": {"f": 0.0}, "T": {"type": "DT_FLOAT"}, "explicit_paddings": {"list": {}}, "dilations": {"list": {"i": ["1", "1", "1", "1"]}}}}, {"name": "StatefulPartitionedCall/sequential_1/MobileNetV3Large_1/expanded_conv_5_squeeze_excite_conv_1_2/BiasAdd", "op": "_FusedConv2D", "input": ["StatefulPartitionedCall/sequential_1/MobileNetV3Large_1/expanded_conv_5_squeeze_excite_relu_1/Relu", "StatefulPartitionedCall/sequential_1/MobileNetV3Large_1/expanded_conv_5_squeeze_excite_conv_1_2/convolution/ReadVariableOp", "StatefulPartitionedCall/sequential_1/MobileNetV3Large_1/expanded_conv_5_squeeze_excite_conv_1_2/Squeeze"], "device": "/device:CPU:0", "attr": {"num_host_args": {"i": "0"}, "data_format": {"s": "TkhXQw=="}, "filter_format": {"s": "SFdJTw=="}, "strides": {"list": {"i": ["1", "1", "1", "1"]}}, "num_args": {"i": "1"}, "fused_ops": {"list": {"s": ["Qmlhc0FkZA=="]}}, "TArgs": {"list": {"type": ["DT_FLOAT"]}}, "padding": {"s": "U0FNRQ=="}, "use_cudnn_on_gpu": {"b": true}, "leakyrelu_alpha": {"f": 0.2}, "epsilon": {"f": 0.0}, "T": {"type": "DT_FLOAT"}, "explicit_paddings": {"list": {}}, "dilations": {"list": {"i": ["1", "1", "1", "1"]}}}}, {"name": "StatefulPartitionedCall/sequential_1/MobileNetV3Large_1/Add_2", "op": "AddV2", "input": ["StatefulPartitionedCall/sequential_1/MobileNetV3Large_1/expanded_conv_5_squeeze_excite_conv_1_2/BiasAdd", "StatefulPartitionedCall/sequential_1/MobileNetV3Large_1/Const_4"], "attr": {"T": {"type": "DT_FLOAT"}}}, {"name": "StatefulPartitionedCall/sequential_1/MobileNetV3Large_1/re_lu_13_1/Relu6", "op": "Relu6", "input": ["StatefulPartitionedCall/sequential_1/MobileNetV3Large_1/Add_2"], "attr": {"T": {"type": "DT_FLOAT"}}}, {"name": "StatefulPartitionedCall/sequential_1/MobileNetV3Large_1/Mul_2", "op": "Mul", "input": ["StatefulPartitionedCall/sequential_1/MobileNetV3Large_1/Const_5", "StatefulPartitionedCall/sequential_1/MobileNetV3Large_1/re_lu_13_1/Relu6"], "attr": {"_grappler_ArithmeticOptimizer_MinimizeBroadcasts": {"b": true}, "T": {"type": "DT_FLOAT"}}}, {"name": "StatefulPartitionedCall/sequential_1/MobileNetV3Large_1/expanded_conv_5_squeeze_excite_mul_1/Mul", "op": "Mul", "input": ["StatefulPartitionedCall/sequential_1/MobileNetV3Large_1/Mul_2", "StatefulPartitionedCall/sequential_1/MobileNetV3Large_1/re_lu_12_1/Relu"], "attr": {"_grappler_ArithmeticOptimizer_MinimizeBroadcasts": {"b": true}, "T": {"type": "DT_FLOAT"}}}, {"name": "StatefulPartitionedCall/sequential_1/MobileNetV3Large_1/expanded_conv_5_project_bn_1/batchnorm/mul_1", "op": "Conv2D", "input": ["StatefulPartitionedCall/sequential_1/MobileNetV3Large_1/expanded_conv_5_squeeze_excite_mul_1/Mul", "StatefulPartitionedCall/sequential_1/MobileNetV3Large_1/expanded_conv_5_project_1/convolution/merged_input"], "device": "/device:CPU:0", "attr": {"padding": {"s": "U0FNRQ=="}, "data_format": {"s": "TkhXQw=="}, "use_cudnn_on_gpu": {"b": true}, "strides": {"list": {"i": ["1", "1", "1", "1"]}}, "T": {"type": "DT_FLOAT"}, "explicit_paddings": {"list": {}}, "dilations": {"list": {"i": ["1", "1", "1", "1"]}}}}, {"name": "StatefulPartitionedCall/sequential_1/MobileNetV3Large_1/expanded_conv_5_add_1/ArithmeticOptimizer/AddOpsRewrite_Leaf_1_Add", "op": "AddN", "input": ["StatefulPartitionedCall/sequential_1/MobileNetV3Large_1/expanded_conv_4_add_1/ArithmeticOptimizer/AddOpsRewrite_Add", "StatefulPartitionedCall/sequential_1/MobileNetV3Large_1/expanded_conv_5_project_bn_1/batchnorm/mul_1"], "attr": {"N": {"i": "2"}, "T": {"type": "DT_FLOAT"}, "_grappler_ArithmeticOptimizer_AddOpsRewriteStage": {"b": true}}}, {"name": "StatefulPartitionedCall/sequential_1/MobileNetV3Large_1/expanded_conv_5_add_1/ArithmeticOptimizer/AddOpsRewrite_Add", "op": "AddV2", "input": ["StatefulPartitionedCall/sequential_1/MobileNetV3Large_1/expanded_conv_5_project_bn_1/batchnorm/sub", "StatefulPartitionedCall/sequential_1/MobileNetV3Large_1/expanded_conv_5_add_1/ArithmeticOptimizer/AddOpsRewrite_Leaf_1_Add"], "attr": {"T": {"type": "DT_FLOAT"}, "_grappler_ArithmeticOptimizer_AddOpsRewriteStage": {"b": true}}}, {"name": "StatefulPartitionedCall/sequential_1/MobileNetV3Large_1/expanded_conv_6_expand_bn_1/batchnorm/add_1", "op": "_FusedConv2D", "input": ["StatefulPartitionedCall/sequential_1/MobileNetV3Large_1/expanded_conv_5_add_1/ArithmeticOptimizer/AddOpsRewrite_Add", "StatefulPartitionedCall/sequential_1/MobileNetV3Large_1/expanded_conv_6_expand_1/convolution/merged_input", "StatefulPartitionedCall/sequential_1/MobileNetV3Large_1/expanded_conv_6_expand_bn_1/batchnorm/sub"], "device": "/device:CPU:0", "attr": {"num_host_args": {"i": "0"}, "data_format": {"s": "TkhXQw=="}, "filter_format": {"s": "SFdJTw=="}, "fused_ops": {"list": {"s": ["Qmlhc0FkZA=="]}}, "num_args": {"i": "1"}, "strides": {"list": {"i": ["1", "1", "1", "1"]}}, "TArgs": {"list": {"type": ["DT_FLOAT"]}}, "padding": {"s": "U0FNRQ=="}, "use_cudnn_on_gpu": {"b": true}, "leakyrelu_alpha": {"f": 0.2}, "epsilon": {"f": 0.0}, "T": {"type": "DT_FLOAT"}, "explicit_paddings": {"list": {}}, "dilations": {"list": {"i": ["1", "1", "1", "1"]}}}}, {"name": "StatefulPartitionedCall/sequential_1/MobileNetV3Large_1/activation_1_2/truediv", "op": "Mul", "input": ["ConstantFolding/StatefulPartitionedCall/sequential_1/MobileNetV3Large_1/activation_1_2/truediv_recip", "StatefulPartitionedCall/sequential_1/MobileNetV3Large_1/expanded_conv_6_expand_bn_1/batchnorm/add_1"], "attr": {"_grappler_ArithmeticOptimizer_MinimizeBroadcasts": {"b": true}, "T": {"type": "DT_FLOAT"}}}, {"name": "StatefulPartitionedCall/sequential_1/MobileNetV3Large_1/activation_1_2/add", "op": "AddV2", "input": ["StatefulPartitionedCall/sequential_1/MobileNetV3Large_1/expanded_conv_6_expand_bn_1/batchnorm/add_1", "StatefulPartitionedCall/sequential_1/MobileNetV3Large_1/activation_1_2/Const"], "attr": {"T": {"type": "DT_FLOAT"}}}, {"name": "StatefulPartitionedCall/sequential_1/MobileNetV3Large_1/activation_1_2/Relu6", "op": "Relu6", "input": ["StatefulPartitionedCall/sequential_1/MobileNetV3Large_1/activation_1_2/add"], "attr": {"T": {"type": "DT_FLOAT"}}}, {"name": "StatefulPartitionedCall/sequential_1/MobileNetV3Large_1/activation_1_2/mul", "op": "Mul", "input": ["StatefulPartitionedCall/sequential_1/MobileNetV3Large_1/activation_1_2/truediv", "StatefulPartitionedCall/sequential_1/MobileNetV3Large_1/activation_1_2/Relu6"], "attr": {"_grappler_ArithmeticOptimizer_MinimizeBroadcasts": {"b": true}, "T": {"type": "DT_FLOAT"}}}, {"name": "StatefulPartitionedCall/sequential_1/MobileNetV3Large_1/expanded_conv_6_depthwise_pad_1/Pad", "op": "Pad", "input": ["StatefulPartitionedCall/sequential_1/MobileNetV3Large_1/activation_1_2/mul", "StatefulPartitionedCall/sequential_1/MobileNetV3Large_1/expanded_conv_6_depthwise_pad_1/Const"], "attr": {"Tpaddings": {"type": "DT_INT32"}, "T": {"type": "DT_FLOAT"}}}, {"name": "StatefulPartitionedCall/sequential_1/MobileNetV3Large_1/expanded_conv_6_depthwise_1/depthwise", "op": "DepthwiseConv2dNative", "input": ["StatefulPartitionedCall/sequential_1/MobileNetV3Large_1/expanded_conv_6_depthwise_pad_1/Pad", "StatefulPartitionedCall/sequential_1/MobileNetV3Large_1/expanded_conv_6_depthwise_1/depthwise/ReadVariableOp"], "attr": {"padding": {"s": "VkFMSUQ="}, "data_format": {"s": "TkhXQw=="}, "T": {"type": "DT_FLOAT"}, "explicit_paddings": {"list": {}}, "dilations": {"list": {"i": ["1", "1", "1", "1"]}}, "strides": {"list": {"i": ["1", "2", "2", "1"]}}}}, {"name": "StatefulPartitionedCall/sequential_1/MobileNetV3Large_1/expanded_conv_6_depthwise_bn_1/batchnorm/mul_1", "op": "Mul", "input": ["StatefulPartitionedCall/sequential_1/MobileNetV3Large_1/expanded_conv_6_depthwise_1/depthwise", "StatefulPartitionedCall/sequential_1/MobileNetV3Large_1/expanded_conv_6_depthwise_bn_1/batchnorm/mul"], "attr": {"T": {"type": "DT_FLOAT"}}}, {"name": "StatefulPartitionedCall/sequential_1/MobileNetV3Large_1/expanded_conv_6_depthwise_bn_1/batchnorm/add_1", "op": "AddV2", "input": ["StatefulPartitionedCall/sequential_1/MobileNetV3Large_1/expanded_conv_6_depthwise_bn_1/batchnorm/mul_1", "StatefulPartitionedCall/sequential_1/MobileNetV3Large_1/expanded_conv_6_depthwise_bn_1/batchnorm/sub"], "attr": {"T": {"type": "DT_FLOAT"}}}, {"name": "StatefulPartitionedCall/sequential_1/MobileNetV3Large_1/activation_2_1/truediv", "op": "Mul", "input": ["ConstantFolding/StatefulPartitionedCall/sequential_1/MobileNetV3Large_1/activation_2_1/truediv_recip", "StatefulPartitionedCall/sequential_1/MobileNetV3Large_1/expanded_conv_6_depthwise_bn_1/batchnorm/add_1"], "attr": {"_grappler_ArithmeticOptimizer_MinimizeBroadcasts": {"b": true}, "T": {"type": "DT_FLOAT"}}}, {"name": "StatefulPartitionedCall/sequential_1/MobileNetV3Large_1/activation_2_1/add", "op": "AddV2", "input": ["StatefulPartitionedCall/sequential_1/MobileNetV3Large_1/expanded_conv_6_depthwise_bn_1/batchnorm/add_1", "StatefulPartitionedCall/sequential_1/MobileNetV3Large_1/activation_2_1/Const"], "attr": {"T": {"type": "DT_FLOAT"}}}, {"name": "StatefulPartitionedCall/sequential_1/MobileNetV3Large_1/activation_2_1/Relu6", "op": "Relu6", "input": ["StatefulPartitionedCall/sequential_1/MobileNetV3Large_1/activation_2_1/add"], "attr": {"T": {"type": "DT_FLOAT"}}}, {"name": "StatefulPartitionedCall/sequential_1/MobileNetV3Large_1/activation_2_1/mul", "op": "Mul", "input": ["StatefulPartitionedCall/sequential_1/MobileNetV3Large_1/activation_2_1/truediv", "StatefulPartitionedCall/sequential_1/MobileNetV3Large_1/activation_2_1/Relu6"], "attr": {"_grappler_ArithmeticOptimizer_MinimizeBroadcasts": {"b": true}, "T": {"type": "DT_FLOAT"}}}, {"name": "StatefulPartitionedCall/sequential_1/MobileNetV3Large_1/expanded_conv_6_project_bn_1/batchnorm/add_1", "op": "_FusedConv2D", "input": ["StatefulPartitionedCall/sequential_1/MobileNetV3Large_1/activation_2_1/mul", "StatefulPartitionedCall/sequential_1/MobileNetV3Large_1/expanded_conv_6_project_1/convolution/merged_input", "StatefulPartitionedCall/sequential_1/MobileNetV3Large_1/expanded_conv_6_project_bn_1/batchnorm/sub"], "device": "/device:CPU:0", "attr": {"num_host_args": {"i": "0"}, "data_format": {"s": "TkhXQw=="}, "filter_format": {"s": "SFdJTw=="}, "fused_ops": {"list": {"s": ["Qmlhc0FkZA=="]}}, "num_args": {"i": "1"}, "strides": {"list": {"i": ["1", "1", "1", "1"]}}, "TArgs": {"list": {"type": ["DT_FLOAT"]}}, "padding": {"s": "U0FNRQ=="}, "use_cudnn_on_gpu": {"b": true}, "leakyrelu_alpha": {"f": 0.2}, "epsilon": {"f": 0.0}, "T": {"type": "DT_FLOAT"}, "explicit_paddings": {"list": {}}, "dilations": {"list": {"i": ["1", "1", "1", "1"]}}}}, {"name": "StatefulPartitionedCall/sequential_1/MobileNetV3Large_1/expanded_conv_7_expand_bn_1/batchnorm/add_1", "op": "_FusedConv2D", "input": ["StatefulPartitionedCall/sequential_1/MobileNetV3Large_1/expanded_conv_6_project_bn_1/batchnorm/add_1", "StatefulPartitionedCall/sequential_1/MobileNetV3Large_1/expanded_conv_7_expand_1/convolution/merged_input", "StatefulPartitionedCall/sequential_1/MobileNetV3Large_1/expanded_conv_7_expand_bn_1/batchnorm/sub"], "device": "/device:CPU:0", "attr": {"num_host_args": {"i": "0"}, "data_format": {"s": "TkhXQw=="}, "filter_format": {"s": "SFdJTw=="}, "strides": {"list": {"i": ["1", "1", "1", "1"]}}, "num_args": {"i": "1"}, "fused_ops": {"list": {"s": ["Qmlhc0FkZA=="]}}, "TArgs": {"list": {"type": ["DT_FLOAT"]}}, "padding": {"s": "U0FNRQ=="}, "use_cudnn_on_gpu": {"b": true}, "leakyrelu_alpha": {"f": 0.2}, "epsilon": {"f": 0.0}, "T": {"type": "DT_FLOAT"}, "explicit_paddings": {"list": {}}, "dilations": {"list": {"i": ["1", "1", "1", "1"]}}}}, {"name": "StatefulPartitionedCall/sequential_1/MobileNetV3Large_1/activation_3_1/truediv", "op": "Mul", "input": ["ConstantFolding/StatefulPartitionedCall/sequential_1/MobileNetV3Large_1/activation_3_1/truediv_recip", "StatefulPartitionedCall/sequential_1/MobileNetV3Large_1/expanded_conv_7_expand_bn_1/batchnorm/add_1"], "attr": {"_grappler_ArithmeticOptimizer_MinimizeBroadcasts": {"b": true}, "T": {"type": "DT_FLOAT"}}}, {"name": "StatefulPartitionedCall/sequential_1/MobileNetV3Large_1/activation_3_1/add", "op": "AddV2", "input": ["StatefulPartitionedCall/sequential_1/MobileNetV3Large_1/expanded_conv_7_expand_bn_1/batchnorm/add_1", "StatefulPartitionedCall/sequential_1/MobileNetV3Large_1/activation_3_1/Const"], "attr": {"T": {"type": "DT_FLOAT"}}}, {"name": "StatefulPartitionedCall/sequential_1/MobileNetV3Large_1/activation_3_1/Relu6", "op": "Relu6", "input": ["StatefulPartitionedCall/sequential_1/MobileNetV3Large_1/activation_3_1/add"], "attr": {"T": {"type": "DT_FLOAT"}}}, {"name": "StatefulPartitionedCall/sequential_1/MobileNetV3Large_1/activation_3_1/mul", "op": "Mul", "input": ["StatefulPartitionedCall/sequential_1/MobileNetV3Large_1/activation_3_1/truediv", "StatefulPartitionedCall/sequential_1/MobileNetV3Large_1/activation_3_1/Relu6"], "attr": {"_grappler_ArithmeticOptimizer_MinimizeBroadcasts": {"b": true}, "T": {"type": "DT_FLOAT"}}}, {"name": "StatefulPartitionedCall/sequential_1/MobileNetV3Large_1/expanded_conv_7_depthwise_1/depthwise", "op": "DepthwiseConv2dNative", "input": ["StatefulPartitionedCall/sequential_1/MobileNetV3Large_1/activation_3_1/mul", "StatefulPartitionedCall/sequential_1/MobileNetV3Large_1/expanded_conv_7_depthwise_1/depthwise/ReadVariableOp"], "attr": {"padding": {"s": "U0FNRQ=="}, "data_format": {"s": "TkhXQw=="}, "T": {"type": "DT_FLOAT"}, "explicit_paddings": {"list": {}}, "dilations": {"list": {"i": ["1", "1", "1", "1"]}}, "strides": {"list": {"i": ["1", "1", "1", "1"]}}}}, {"name": "StatefulPartitionedCall/sequential_1/MobileNetV3Large_1/expanded_conv_7_depthwise_bn_1/batchnorm/mul_1", "op": "Mul", "input": ["StatefulPartitionedCall/sequential_1/MobileNetV3Large_1/expanded_conv_7_depthwise_1/depthwise", "StatefulPartitionedCall/sequential_1/MobileNetV3Large_1/expanded_conv_7_depthwise_bn_1/batchnorm/mul"], "attr": {"T": {"type": "DT_FLOAT"}}}, {"name": "StatefulPartitionedCall/sequential_1/MobileNetV3Large_1/expanded_conv_7_depthwise_bn_1/batchnorm/add_1", "op": "AddV2", "input": ["StatefulPartitionedCall/sequential_1/MobileNetV3Large_1/expanded_conv_7_depthwise_bn_1/batchnorm/mul_1", "StatefulPartitionedCall/sequential_1/MobileNetV3Large_1/expanded_conv_7_depthwise_bn_1/batchnorm/sub"], "attr": {"T": {"type": "DT_FLOAT"}}}, {"name": "StatefulPartitionedCall/sequential_1/MobileNetV3Large_1/activation_4_1/truediv", "op": "Mul", "input": ["ConstantFolding/StatefulPartitionedCall/sequential_1/MobileNetV3Large_1/activation_4_1/truediv_recip", "StatefulPartitionedCall/sequential_1/MobileNetV3Large_1/expanded_conv_7_depthwise_bn_1/batchnorm/add_1"], "attr": {"_grappler_ArithmeticOptimizer_MinimizeBroadcasts": {"b": true}, "T": {"type": "DT_FLOAT"}}}, {"name": "StatefulPartitionedCall/sequential_1/MobileNetV3Large_1/activation_4_1/add", "op": "AddV2", "input": ["StatefulPartitionedCall/sequential_1/MobileNetV3Large_1/expanded_conv_7_depthwise_bn_1/batchnorm/add_1", "StatefulPartitionedCall/sequential_1/MobileNetV3Large_1/activation_4_1/Const"], "attr": {"T": {"type": "DT_FLOAT"}}}, {"name": "StatefulPartitionedCall/sequential_1/MobileNetV3Large_1/activation_4_1/Relu6", "op": "Relu6", "input": ["StatefulPartitionedCall/sequential_1/MobileNetV3Large_1/activation_4_1/add"], "attr": {"T": {"type": "DT_FLOAT"}}}, {"name": "StatefulPartitionedCall/sequential_1/MobileNetV3Large_1/activation_4_1/mul", "op": "Mul", "input": ["StatefulPartitionedCall/sequential_1/MobileNetV3Large_1/activation_4_1/truediv", "StatefulPartitionedCall/sequential_1/MobileNetV3Large_1/activation_4_1/Relu6"], "attr": {"_grappler_ArithmeticOptimizer_MinimizeBroadcasts": {"b": true}, "T": {"type": "DT_FLOAT"}}}, {"name": "StatefulPartitionedCall/sequential_1/MobileNetV3Large_1/expanded_conv_7_project_bn_1/batchnorm/mul_1", "op": "Conv2D", "input": ["StatefulPartitionedCall/sequential_1/MobileNetV3Large_1/activation_4_1/mul", "StatefulPartitionedCall/sequential_1/MobileNetV3Large_1/expanded_conv_7_project_1/convolution/merged_input"], "device": "/device:CPU:0", "attr": {"padding": {"s": "U0FNRQ=="}, "data_format": {"s": "TkhXQw=="}, "strides": {"list": {"i": ["1", "1", "1", "1"]}}, "use_cudnn_on_gpu": {"b": true}, "T": {"type": "DT_FLOAT"}, "explicit_paddings": {"list": {}}, "dilations": {"list": {"i": ["1", "1", "1", "1"]}}}}, {"name": "StatefulPartitionedCall/sequential_1/MobileNetV3Large_1/expanded_conv_7_add_1/ArithmeticOptimizer/AddOpsRewrite_Leaf_1_Add", "op": "AddN", "input": ["StatefulPartitionedCall/sequential_1/MobileNetV3Large_1/expanded_conv_6_project_bn_1/batchnorm/add_1", "StatefulPartitionedCall/sequential_1/MobileNetV3Large_1/expanded_conv_7_project_bn_1/batchnorm/mul_1"], "attr": {"N": {"i": "2"}, "T": {"type": "DT_FLOAT"}, "_grappler_ArithmeticOptimizer_AddOpsRewriteStage": {"b": true}}}, {"name": "StatefulPartitionedCall/sequential_1/MobileNetV3Large_1/expanded_conv_7_add_1/ArithmeticOptimizer/AddOpsRewrite_Add", "op": "AddV2", "input": ["StatefulPartitionedCall/sequential_1/MobileNetV3Large_1/expanded_conv_7_project_bn_1/batchnorm/sub", "StatefulPartitionedCall/sequential_1/MobileNetV3Large_1/expanded_conv_7_add_1/ArithmeticOptimizer/AddOpsRewrite_Leaf_1_Add"], "attr": {"T": {"type": "DT_FLOAT"}, "_grappler_ArithmeticOptimizer_AddOpsRewriteStage": {"b": true}}}, {"name": "StatefulPartitionedCall/sequential_1/MobileNetV3Large_1/expanded_conv_8_expand_bn_1/batchnorm/add_1", "op": "_FusedConv2D", "input": ["StatefulPartitionedCall/sequential_1/MobileNetV3Large_1/expanded_conv_7_add_1/ArithmeticOptimizer/AddOpsRewrite_Add", "StatefulPartitionedCall/sequential_1/MobileNetV3Large_1/expanded_conv_8_expand_1/convolution/merged_input", "StatefulPartitionedCall/sequential_1/MobileNetV3Large_1/expanded_conv_8_expand_bn_1/batchnorm/sub"], "device": "/device:CPU:0", "attr": {"num_host_args": {"i": "0"}, "data_format": {"s": "TkhXQw=="}, "filter_format": {"s": "SFdJTw=="}, "fused_ops": {"list": {"s": ["Qmlhc0FkZA=="]}}, "num_args": {"i": "1"}, "strides": {"list": {"i": ["1", "1", "1", "1"]}}, "TArgs": {"list": {"type": ["DT_FLOAT"]}}, "padding": {"s": "U0FNRQ=="}, "use_cudnn_on_gpu": {"b": true}, "leakyrelu_alpha": {"f": 0.2}, "epsilon": {"f": 0.0}, "T": {"type": "DT_FLOAT"}, "explicit_paddings": {"list": {}}, "dilations": {"list": {"i": ["1", "1", "1", "1"]}}}}, {"name": "StatefulPartitionedCall/sequential_1/MobileNetV3Large_1/activation_5_1/truediv", "op": "Mul", "input": ["ConstantFolding/StatefulPartitionedCall/sequential_1/MobileNetV3Large_1/activation_5_1/truediv_recip", "StatefulPartitionedCall/sequential_1/MobileNetV3Large_1/expanded_conv_8_expand_bn_1/batchnorm/add_1"], "attr": {"_grappler_ArithmeticOptimizer_MinimizeBroadcasts": {"b": true}, "T": {"type": "DT_FLOAT"}}}, {"name": "StatefulPartitionedCall/sequential_1/MobileNetV3Large_1/activation_5_1/add", "op": "AddV2", "input": ["StatefulPartitionedCall/sequential_1/MobileNetV3Large_1/expanded_conv_8_expand_bn_1/batchnorm/add_1", "StatefulPartitionedCall/sequential_1/MobileNetV3Large_1/activation_5_1/Const"], "attr": {"T": {"type": "DT_FLOAT"}}}, {"name": "StatefulPartitionedCall/sequential_1/MobileNetV3Large_1/activation_5_1/Relu6", "op": "Relu6", "input": ["StatefulPartitionedCall/sequential_1/MobileNetV3Large_1/activation_5_1/add"], "attr": {"T": {"type": "DT_FLOAT"}}}, {"name": "StatefulPartitionedCall/sequential_1/MobileNetV3Large_1/activation_5_1/mul", "op": "Mul", "input": ["StatefulPartitionedCall/sequential_1/MobileNetV3Large_1/activation_5_1/truediv", "StatefulPartitionedCall/sequential_1/MobileNetV3Large_1/activation_5_1/Relu6"], "attr": {"_grappler_ArithmeticOptimizer_MinimizeBroadcasts": {"b": true}, "T": {"type": "DT_FLOAT"}}}, {"name": "StatefulPartitionedCall/sequential_1/MobileNetV3Large_1/expanded_conv_8_depthwise_1/depthwise", "op": "DepthwiseConv2dNative", "input": ["StatefulPartitionedCall/sequential_1/MobileNetV3Large_1/activation_5_1/mul", "StatefulPartitionedCall/sequential_1/MobileNetV3Large_1/expanded_conv_8_depthwise_1/depthwise/ReadVariableOp"], "attr": {"padding": {"s": "U0FNRQ=="}, "data_format": {"s": "TkhXQw=="}, "T": {"type": "DT_FLOAT"}, "explicit_paddings": {"list": {}}, "dilations": {"list": {"i": ["1", "1", "1", "1"]}}, "strides": {"list": {"i": ["1", "1", "1", "1"]}}}}, {"name": "StatefulPartitionedCall/sequential_1/MobileNetV3Large_1/expanded_conv_8_depthwise_bn_1/batchnorm/mul_1", "op": "Mul", "input": ["StatefulPartitionedCall/sequential_1/MobileNetV3Large_1/expanded_conv_8_depthwise_1/depthwise", "StatefulPartitionedCall/sequential_1/MobileNetV3Large_1/expanded_conv_8_depthwise_bn_1/batchnorm/mul"], "attr": {"T": {"type": "DT_FLOAT"}}}, {"name": "StatefulPartitionedCall/sequential_1/MobileNetV3Large_1/expanded_conv_8_depthwise_bn_1/batchnorm/add_1", "op": "AddV2", "input": ["StatefulPartitionedCall/sequential_1/MobileNetV3Large_1/expanded_conv_8_depthwise_bn_1/batchnorm/mul_1", "StatefulPartitionedCall/sequential_1/MobileNetV3Large_1/expanded_conv_8_depthwise_bn_1/batchnorm/sub"], "attr": {"T": {"type": "DT_FLOAT"}}}, {"name": "StatefulPartitionedCall/sequential_1/MobileNetV3Large_1/activation_6_1/truediv", "op": "Mul", "input": ["ConstantFolding/StatefulPartitionedCall/sequential_1/MobileNetV3Large_1/activation_6_1/truediv_recip", "StatefulPartitionedCall/sequential_1/MobileNetV3Large_1/expanded_conv_8_depthwise_bn_1/batchnorm/add_1"], "attr": {"_grappler_ArithmeticOptimizer_MinimizeBroadcasts": {"b": true}, "T": {"type": "DT_FLOAT"}}}, {"name": "StatefulPartitionedCall/sequential_1/MobileNetV3Large_1/activation_6_1/add", "op": "AddV2", "input": ["StatefulPartitionedCall/sequential_1/MobileNetV3Large_1/expanded_conv_8_depthwise_bn_1/batchnorm/add_1", "StatefulPartitionedCall/sequential_1/MobileNetV3Large_1/activation_6_1/Const"], "attr": {"T": {"type": "DT_FLOAT"}}}, {"name": "StatefulPartitionedCall/sequential_1/MobileNetV3Large_1/activation_6_1/Relu6", "op": "Relu6", "input": ["StatefulPartitionedCall/sequential_1/MobileNetV3Large_1/activation_6_1/add"], "attr": {"T": {"type": "DT_FLOAT"}}}, {"name": "StatefulPartitionedCall/sequential_1/MobileNetV3Large_1/activation_6_1/mul", "op": "Mul", "input": ["StatefulPartitionedCall/sequential_1/MobileNetV3Large_1/activation_6_1/truediv", "StatefulPartitionedCall/sequential_1/MobileNetV3Large_1/activation_6_1/Relu6"], "attr": {"_grappler_ArithmeticOptimizer_MinimizeBroadcasts": {"b": true}, "T": {"type": "DT_FLOAT"}}}, {"name": "StatefulPartitionedCall/sequential_1/MobileNetV3Large_1/expanded_conv_8_project_bn_1/batchnorm/mul_1", "op": "Conv2D", "input": ["StatefulPartitionedCall/sequential_1/MobileNetV3Large_1/activation_6_1/mul", "StatefulPartitionedCall/sequential_1/MobileNetV3Large_1/expanded_conv_8_project_1/convolution/merged_input"], "device": "/device:CPU:0", "attr": {"padding": {"s": "U0FNRQ=="}, "data_format": {"s": "TkhXQw=="}, "use_cudnn_on_gpu": {"b": true}, "strides": {"list": {"i": ["1", "1", "1", "1"]}}, "T": {"type": "DT_FLOAT"}, "explicit_paddings": {"list": {}}, "dilations": {"list": {"i": ["1", "1", "1", "1"]}}}}, {"name": "StatefulPartitionedCall/sequential_1/MobileNetV3Large_1/expanded_conv_8_add_1/ArithmeticOptimizer/AddOpsRewrite_Leaf_1_Add", "op": "AddN", "input": ["StatefulPartitionedCall/sequential_1/MobileNetV3Large_1/expanded_conv_7_add_1/ArithmeticOptimizer/AddOpsRewrite_Add", "StatefulPartitionedCall/sequential_1/MobileNetV3Large_1/expanded_conv_8_project_bn_1/batchnorm/mul_1"], "attr": {"N": {"i": "2"}, "T": {"type": "DT_FLOAT"}, "_grappler_ArithmeticOptimizer_AddOpsRewriteStage": {"b": true}}}, {"name": "StatefulPartitionedCall/sequential_1/MobileNetV3Large_1/expanded_conv_8_add_1/ArithmeticOptimizer/AddOpsRewrite_Add", "op": "AddV2", "input": ["StatefulPartitionedCall/sequential_1/MobileNetV3Large_1/expanded_conv_8_project_bn_1/batchnorm/sub", "StatefulPartitionedCall/sequential_1/MobileNetV3Large_1/expanded_conv_8_add_1/ArithmeticOptimizer/AddOpsRewrite_Leaf_1_Add"], "attr": {"T": {"type": "DT_FLOAT"}, "_grappler_ArithmeticOptimizer_AddOpsRewriteStage": {"b": true}}}, {"name": "StatefulPartitionedCall/sequential_1/MobileNetV3Large_1/expanded_conv_9_expand_bn_1/batchnorm/add_1", "op": "_FusedConv2D", "input": ["StatefulPartitionedCall/sequential_1/MobileNetV3Large_1/expanded_conv_8_add_1/ArithmeticOptimizer/AddOpsRewrite_Add", "StatefulPartitionedCall/sequential_1/MobileNetV3Large_1/expanded_conv_9_expand_1/convolution/merged_input", "StatefulPartitionedCall/sequential_1/MobileNetV3Large_1/expanded_conv_9_expand_bn_1/batchnorm/sub"], "device": "/device:CPU:0", "attr": {"num_host_args": {"i": "0"}, "data_format": {"s": "TkhXQw=="}, "filter_format": {"s": "SFdJTw=="}, "strides": {"list": {"i": ["1", "1", "1", "1"]}}, "num_args": {"i": "1"}, "fused_ops": {"list": {"s": ["Qmlhc0FkZA=="]}}, "TArgs": {"list": {"type": ["DT_FLOAT"]}}, "padding": {"s": "U0FNRQ=="}, "use_cudnn_on_gpu": {"b": true}, "leakyrelu_alpha": {"f": 0.2}, "epsilon": {"f": 0.0}, "T": {"type": "DT_FLOAT"}, "explicit_paddings": {"list": {}}, "dilations": {"list": {"i": ["1", "1", "1", "1"]}}}}, {"name": "StatefulPartitionedCall/sequential_1/MobileNetV3Large_1/activation_7_1/truediv", "op": "Mul", "input": ["ConstantFolding/StatefulPartitionedCall/sequential_1/MobileNetV3Large_1/activation_7_1/truediv_recip", "StatefulPartitionedCall/sequential_1/MobileNetV3Large_1/expanded_conv_9_expand_bn_1/batchnorm/add_1"], "attr": {"_grappler_ArithmeticOptimizer_MinimizeBroadcasts": {"b": true}, "T": {"type": "DT_FLOAT"}}}, {"name": "StatefulPartitionedCall/sequential_1/MobileNetV3Large_1/activation_7_1/add", "op": "AddV2", "input": ["StatefulPartitionedCall/sequential_1/MobileNetV3Large_1/expanded_conv_9_expand_bn_1/batchnorm/add_1", "StatefulPartitionedCall/sequential_1/MobileNetV3Large_1/activation_7_1/Const"], "attr": {"T": {"type": "DT_FLOAT"}}}, {"name": "StatefulPartitionedCall/sequential_1/MobileNetV3Large_1/activation_7_1/Relu6", "op": "Relu6", "input": ["StatefulPartitionedCall/sequential_1/MobileNetV3Large_1/activation_7_1/add"], "attr": {"T": {"type": "DT_FLOAT"}}}, {"name": "StatefulPartitionedCall/sequential_1/MobileNetV3Large_1/activation_7_1/mul", "op": "Mul", "input": ["StatefulPartitionedCall/sequential_1/MobileNetV3Large_1/activation_7_1/truediv", "StatefulPartitionedCall/sequential_1/MobileNetV3Large_1/activation_7_1/Relu6"], "attr": {"_grappler_ArithmeticOptimizer_MinimizeBroadcasts": {"b": true}, "T": {"type": "DT_FLOAT"}}}, {"name": "StatefulPartitionedCall/sequential_1/MobileNetV3Large_1/expanded_conv_9_depthwise_1/depthwise", "op": "DepthwiseConv2dNative", "input": ["StatefulPartitionedCall/sequential_1/MobileNetV3Large_1/activation_7_1/mul", "StatefulPartitionedCall/sequential_1/MobileNetV3Large_1/expanded_conv_9_depthwise_1/depthwise/ReadVariableOp"], "attr": {"padding": {"s": "U0FNRQ=="}, "data_format": {"s": "TkhXQw=="}, "T": {"type": "DT_FLOAT"}, "explicit_paddings": {"list": {}}, "dilations": {"list": {"i": ["1", "1", "1", "1"]}}, "strides": {"list": {"i": ["1", "1", "1", "1"]}}}}, {"name": "StatefulPartitionedCall/sequential_1/MobileNetV3Large_1/expanded_conv_9_depthwise_bn_1/batchnorm/mul_1", "op": "Mul", "input": ["StatefulPartitionedCall/sequential_1/MobileNetV3Large_1/expanded_conv_9_depthwise_1/depthwise", "StatefulPartitionedCall/sequential_1/MobileNetV3Large_1/expanded_conv_9_depthwise_bn_1/batchnorm/mul"], "attr": {"T": {"type": "DT_FLOAT"}}}, {"name": "StatefulPartitionedCall/sequential_1/MobileNetV3Large_1/expanded_conv_9_depthwise_bn_1/batchnorm/add_1", "op": "AddV2", "input": ["StatefulPartitionedCall/sequential_1/MobileNetV3Large_1/expanded_conv_9_depthwise_bn_1/batchnorm/mul_1", "StatefulPartitionedCall/sequential_1/MobileNetV3Large_1/expanded_conv_9_depthwise_bn_1/batchnorm/sub"], "attr": {"T": {"type": "DT_FLOAT"}}}, {"name": "StatefulPartitionedCall/sequential_1/MobileNetV3Large_1/activation_8_1/truediv", "op": "Mul", "input": ["ConstantFolding/StatefulPartitionedCall/sequential_1/MobileNetV3Large_1/activation_8_1/truediv_recip", "StatefulPartitionedCall/sequential_1/MobileNetV3Large_1/expanded_conv_9_depthwise_bn_1/batchnorm/add_1"], "attr": {"_grappler_ArithmeticOptimizer_MinimizeBroadcasts": {"b": true}, "T": {"type": "DT_FLOAT"}}}, {"name": "StatefulPartitionedCall/sequential_1/MobileNetV3Large_1/activation_8_1/add", "op": "AddV2", "input": ["StatefulPartitionedCall/sequential_1/MobileNetV3Large_1/expanded_conv_9_depthwise_bn_1/batchnorm/add_1", "StatefulPartitionedCall/sequential_1/MobileNetV3Large_1/activation_8_1/Const"], "attr": {"T": {"type": "DT_FLOAT"}}}, {"name": "StatefulPartitionedCall/sequential_1/MobileNetV3Large_1/activation_8_1/Relu6", "op": "Relu6", "input": ["StatefulPartitionedCall/sequential_1/MobileNetV3Large_1/activation_8_1/add"], "attr": {"T": {"type": "DT_FLOAT"}}}, {"name": "StatefulPartitionedCall/sequential_1/MobileNetV3Large_1/activation_8_1/mul", "op": "Mul", "input": ["StatefulPartitionedCall/sequential_1/MobileNetV3Large_1/activation_8_1/truediv", "StatefulPartitionedCall/sequential_1/MobileNetV3Large_1/activation_8_1/Relu6"], "attr": {"_grappler_ArithmeticOptimizer_MinimizeBroadcasts": {"b": true}, "T": {"type": "DT_FLOAT"}}}, {"name": "StatefulPartitionedCall/sequential_1/MobileNetV3Large_1/expanded_conv_9_project_bn_1/batchnorm/mul_1", "op": "Conv2D", "input": ["StatefulPartitionedCall/sequential_1/MobileNetV3Large_1/activation_8_1/mul", "StatefulPartitionedCall/sequential_1/MobileNetV3Large_1/expanded_conv_9_project_1/convolution/merged_input"], "device": "/device:CPU:0", "attr": {"padding": {"s": "U0FNRQ=="}, "data_format": {"s": "TkhXQw=="}, "use_cudnn_on_gpu": {"b": true}, "strides": {"list": {"i": ["1", "1", "1", "1"]}}, "T": {"type": "DT_FLOAT"}, "explicit_paddings": {"list": {}}, "dilations": {"list": {"i": ["1", "1", "1", "1"]}}}}, {"name": "StatefulPartitionedCall/sequential_1/MobileNetV3Large_1/expanded_conv_9_add_1/ArithmeticOptimizer/AddOpsRewrite_Leaf_1_Add", "op": "AddN", "input": ["StatefulPartitionedCall/sequential_1/MobileNetV3Large_1/expanded_conv_8_add_1/ArithmeticOptimizer/AddOpsRewrite_Add", "StatefulPartitionedCall/sequential_1/MobileNetV3Large_1/expanded_conv_9_project_bn_1/batchnorm/mul_1"], "attr": {"N": {"i": "2"}, "T": {"type": "DT_FLOAT"}, "_grappler_ArithmeticOptimizer_AddOpsRewriteStage": {"b": true}}}, {"name": "StatefulPartitionedCall/sequential_1/MobileNetV3Large_1/expanded_conv_9_add_1/ArithmeticOptimizer/AddOpsRewrite_Add", "op": "AddV2", "input": ["StatefulPartitionedCall/sequential_1/MobileNetV3Large_1/expanded_conv_9_project_bn_1/batchnorm/sub", "StatefulPartitionedCall/sequential_1/MobileNetV3Large_1/expanded_conv_9_add_1/ArithmeticOptimizer/AddOpsRewrite_Leaf_1_Add"], "attr": {"T": {"type": "DT_FLOAT"}, "_grappler_ArithmeticOptimizer_AddOpsRewriteStage": {"b": true}}}, {"name": "StatefulPartitionedCall/sequential_1/MobileNetV3Large_1/expanded_conv_10_expand_bn_1/batchnorm/add_1", "op": "_FusedConv2D", "input": ["StatefulPartitionedCall/sequential_1/MobileNetV3Large_1/expanded_conv_9_add_1/ArithmeticOptimizer/AddOpsRewrite_Add", "StatefulPartitionedCall/sequential_1/MobileNetV3Large_1/expanded_conv_10_expand_1/convolution/merged_input", "StatefulPartitionedCall/sequential_1/MobileNetV3Large_1/expanded_conv_10_expand_bn_1/batchnorm/sub"], "device": "/device:CPU:0", "attr": {"num_host_args": {"i": "0"}, "data_format": {"s": "TkhXQw=="}, "filter_format": {"s": "SFdJTw=="}, "fused_ops": {"list": {"s": ["Qmlhc0FkZA=="]}}, "num_args": {"i": "1"}, "strides": {"list": {"i": ["1", "1", "1", "1"]}}, "TArgs": {"list": {"type": ["DT_FLOAT"]}}, "padding": {"s": "U0FNRQ=="}, "use_cudnn_on_gpu": {"b": true}, "leakyrelu_alpha": {"f": 0.2}, "epsilon": {"f": 0.0}, "T": {"type": "DT_FLOAT"}, "explicit_paddings": {"list": {}}, "dilations": {"list": {"i": ["1", "1", "1", "1"]}}}}, {"name": "StatefulPartitionedCall/sequential_1/MobileNetV3Large_1/activation_9_1/truediv", "op": "Mul", "input": ["ConstantFolding/StatefulPartitionedCall/sequential_1/MobileNetV3Large_1/activation_9_1/truediv_recip", "StatefulPartitionedCall/sequential_1/MobileNetV3Large_1/expanded_conv_10_expand_bn_1/batchnorm/add_1"], "attr": {"_grappler_ArithmeticOptimizer_MinimizeBroadcasts": {"b": true}, "T": {"type": "DT_FLOAT"}}}, {"name": "StatefulPartitionedCall/sequential_1/MobileNetV3Large_1/activation_9_1/add", "op": "AddV2", "input": ["StatefulPartitionedCall/sequential_1/MobileNetV3Large_1/expanded_conv_10_expand_bn_1/batchnorm/add_1", "StatefulPartitionedCall/sequential_1/MobileNetV3Large_1/activation_9_1/Const"], "attr": {"T": {"type": "DT_FLOAT"}}}, {"name": "StatefulPartitionedCall/sequential_1/MobileNetV3Large_1/activation_9_1/Relu6", "op": "Relu6", "input": ["StatefulPartitionedCall/sequential_1/MobileNetV3Large_1/activation_9_1/add"], "attr": {"T": {"type": "DT_FLOAT"}}}, {"name": "StatefulPartitionedCall/sequential_1/MobileNetV3Large_1/activation_9_1/mul", "op": "Mul", "input": ["StatefulPartitionedCall/sequential_1/MobileNetV3Large_1/activation_9_1/truediv", "StatefulPartitionedCall/sequential_1/MobileNetV3Large_1/activation_9_1/Relu6"], "attr": {"_grappler_ArithmeticOptimizer_MinimizeBroadcasts": {"b": true}, "T": {"type": "DT_FLOAT"}}}, {"name": "StatefulPartitionedCall/sequential_1/MobileNetV3Large_1/expanded_conv_10_depthwise_1/depthwise", "op": "DepthwiseConv2dNative", "input": ["StatefulPartitionedCall/sequential_1/MobileNetV3Large_1/activation_9_1/mul", "StatefulPartitionedCall/sequential_1/MobileNetV3Large_1/expanded_conv_10_depthwise_1/depthwise/ReadVariableOp"], "attr": {"padding": {"s": "U0FNRQ=="}, "data_format": {"s": "TkhXQw=="}, "T": {"type": "DT_FLOAT"}, "explicit_paddings": {"list": {}}, "dilations": {"list": {"i": ["1", "1", "1", "1"]}}, "strides": {"list": {"i": ["1", "1", "1", "1"]}}}}, {"name": "StatefulPartitionedCall/sequential_1/MobileNetV3Large_1/expanded_conv_10_depthwise_bn_1/batchnorm/mul_1", "op": "Mul", "input": ["StatefulPartitionedCall/sequential_1/MobileNetV3Large_1/expanded_conv_10_depthwise_1/depthwise", "StatefulPartitionedCall/sequential_1/MobileNetV3Large_1/expanded_conv_10_depthwise_bn_1/batchnorm/mul"], "attr": {"T": {"type": "DT_FLOAT"}}}, {"name": "StatefulPartitionedCall/sequential_1/MobileNetV3Large_1/expanded_conv_10_depthwise_bn_1/batchnorm/add_1", "op": "AddV2", "input": ["StatefulPartitionedCall/sequential_1/MobileNetV3Large_1/expanded_conv_10_depthwise_bn_1/batchnorm/mul_1", "StatefulPartitionedCall/sequential_1/MobileNetV3Large_1/expanded_conv_10_depthwise_bn_1/batchnorm/sub"], "attr": {"T": {"type": "DT_FLOAT"}}}, {"name": "StatefulPartitionedCall/sequential_1/MobileNetV3Large_1/activation_10_1/truediv", "op": "Mul", "input": ["ConstantFolding/StatefulPartitionedCall/sequential_1/MobileNetV3Large_1/activation_10_1/truediv_recip", "StatefulPartitionedCall/sequential_1/MobileNetV3Large_1/expanded_conv_10_depthwise_bn_1/batchnorm/add_1"], "attr": {"_grappler_ArithmeticOptimizer_MinimizeBroadcasts": {"b": true}, "T": {"type": "DT_FLOAT"}}}, {"name": "StatefulPartitionedCall/sequential_1/MobileNetV3Large_1/activation_10_1/add", "op": "AddV2", "input": ["StatefulPartitionedCall/sequential_1/MobileNetV3Large_1/expanded_conv_10_depthwise_bn_1/batchnorm/add_1", "StatefulPartitionedCall/sequential_1/MobileNetV3Large_1/activation_10_1/Const"], "attr": {"T": {"type": "DT_FLOAT"}}}, {"name": "StatefulPartitionedCall/sequential_1/MobileNetV3Large_1/activation_10_1/Relu6", "op": "Relu6", "input": ["StatefulPartitionedCall/sequential_1/MobileNetV3Large_1/activation_10_1/add"], "attr": {"T": {"type": "DT_FLOAT"}}}, {"name": "StatefulPartitionedCall/sequential_1/MobileNetV3Large_1/activation_10_1/mul", "op": "Mul", "input": ["StatefulPartitionedCall/sequential_1/MobileNetV3Large_1/activation_10_1/truediv", "StatefulPartitionedCall/sequential_1/MobileNetV3Large_1/activation_10_1/Relu6"], "attr": {"_grappler_ArithmeticOptimizer_MinimizeBroadcasts": {"b": true}, "T": {"type": "DT_FLOAT"}}}, {"name": "StatefulPartitionedCall/sequential_1/MobileNetV3Large_1/expanded_conv_10_squeeze_excite_avg_pool_1/Mean", "op": "Mean", "input": ["StatefulPartitionedCall/sequential_1/MobileNetV3Large_1/activation_10_1/mul", "StatefulPartitionedCall/sequential_1/MobileNetV3Large_1/expanded_conv_10_squeeze_excite_avg_pool_1/Mean/reduction_indices"], "attr": {"Tidx": {"type": "DT_INT32"}, "T": {"type": "DT_FLOAT"}, "keep_dims": {"b": true}}}, {"name": "StatefulPartitionedCall/sequential_1/MobileNetV3Large_1/expanded_conv_10_squeeze_excite_relu_1/Relu", "op": "_FusedConv2D", "input": ["StatefulPartitionedCall/sequential_1/MobileNetV3Large_1/expanded_conv_10_squeeze_excite_avg_pool_1/Mean", "StatefulPartitionedCall/sequential_1/MobileNetV3Large_1/expanded_conv_10_squeeze_excite_conv_1/convolution/ReadVariableOp", "StatefulPartitionedCall/sequential_1/MobileNetV3Large_1/expanded_conv_10_squeeze_excite_conv_1/Squeeze"], "device": "/device:CPU:0", "attr": {"num_host_args": {"i": "0"}, "data_format": {"s": "TkhXQw=="}, "filter_format": {"s": "SFdJTw=="}, "fused_ops": {"list": {"s": ["Qmlhc0FkZA==", "UmVsdQ=="]}}, "num_args": {"i": "1"}, "strides": {"list": {"i": ["1", "1", "1", "1"]}}, "TArgs": {"list": {"type": ["DT_FLOAT"]}}, "padding": {"s": "U0FNRQ=="}, "use_cudnn_on_gpu": {"b": true}, "leakyrelu_alpha": {"f": 0.2}, "epsilon": {"f": 0.0}, "T": {"type": "DT_FLOAT"}, "explicit_paddings": {"list": {}}, "dilations": {"list": {"i": ["1", "1", "1", "1"]}}}}, {"name": "StatefulPartitionedCall/sequential_1/MobileNetV3Large_1/expanded_conv_10_squeeze_excite_conv_1_2/BiasAdd", "op": "_FusedConv2D", "input": ["StatefulPartitionedCall/sequential_1/MobileNetV3Large_1/expanded_conv_10_squeeze_excite_relu_1/Relu", "StatefulPartitionedCall/sequential_1/MobileNetV3Large_1/expanded_conv_10_squeeze_excite_conv_1_2/convolution/ReadVariableOp", "StatefulPartitionedCall/sequential_1/MobileNetV3Large_1/expanded_conv_10_squeeze_excite_conv_1_2/Squeeze"], "device": "/device:CPU:0", "attr": {"num_host_args": {"i": "0"}, "data_format": {"s": "TkhXQw=="}, "filter_format": {"s": "SFdJTw=="}, "strides": {"list": {"i": ["1", "1", "1", "1"]}}, "num_args": {"i": "1"}, "fused_ops": {"list": {"s": ["Qmlhc0FkZA=="]}}, "TArgs": {"list": {"type": ["DT_FLOAT"]}}, "padding": {"s": "U0FNRQ=="}, "use_cudnn_on_gpu": {"b": true}, "leakyrelu_alpha": {"f": 0.2}, "epsilon": {"f": 0.0}, "T": {"type": "DT_FLOAT"}, "explicit_paddings": {"list": {}}, "dilations": {"list": {"i": ["1", "1", "1", "1"]}}}}, {"name": "StatefulPartitionedCall/sequential_1/MobileNetV3Large_1/Add_3", "op": "AddV2", "input": ["StatefulPartitionedCall/sequential_1/MobileNetV3Large_1/expanded_conv_10_squeeze_excite_conv_1_2/BiasAdd", "StatefulPartitionedCall/sequential_1/MobileNetV3Large_1/Const_6"], "attr": {"T": {"type": "DT_FLOAT"}}}, {"name": "StatefulPartitionedCall/sequential_1/MobileNetV3Large_1/re_lu_14_1/Relu6", "op": "Relu6", "input": ["StatefulPartitionedCall/sequential_1/MobileNetV3Large_1/Add_3"], "attr": {"T": {"type": "DT_FLOAT"}}}, {"name": "StatefulPartitionedCall/sequential_1/MobileNetV3Large_1/Mul_3", "op": "Mul", "input": ["StatefulPartitionedCall/sequential_1/MobileNetV3Large_1/Const_7", "StatefulPartitionedCall/sequential_1/MobileNetV3Large_1/re_lu_14_1/Relu6"], "attr": {"_grappler_ArithmeticOptimizer_MinimizeBroadcasts": {"b": true}, "T": {"type": "DT_FLOAT"}}}, {"name": "StatefulPartitionedCall/sequential_1/MobileNetV3Large_1/expanded_conv_10_squeeze_excite_mul_1/Mul", "op": "Mul", "input": ["StatefulPartitionedCall/sequential_1/MobileNetV3Large_1/Mul_3", "StatefulPartitionedCall/sequential_1/MobileNetV3Large_1/activation_10_1/mul"], "attr": {"_grappler_ArithmeticOptimizer_MinimizeBroadcasts": {"b": true}, "T": {"type": "DT_FLOAT"}}}, {"name": "StatefulPartitionedCall/sequential_1/MobileNetV3Large_1/expanded_conv_10_project_bn_1/batchnorm/add_1", "op": "_FusedConv2D", "input": ["StatefulPartitionedCall/sequential_1/MobileNetV3Large_1/expanded_conv_10_squeeze_excite_mul_1/Mul", "StatefulPartitionedCall/sequential_1/MobileNetV3Large_1/expanded_conv_10_project_1/convolution/merged_input", "StatefulPartitionedCall/sequential_1/MobileNetV3Large_1/expanded_conv_10_project_bn_1/batchnorm/sub"], "device": "/device:CPU:0", "attr": {"num_host_args": {"i": "0"}, "data_format": {"s": "TkhXQw=="}, "filter_format": {"s": "SFdJTw=="}, "fused_ops": {"list": {"s": ["Qmlhc0FkZA=="]}}, "num_args": {"i": "1"}, "strides": {"list": {"i": ["1", "1", "1", "1"]}}, "TArgs": {"list": {"type": ["DT_FLOAT"]}}, "padding": {"s": "U0FNRQ=="}, "use_cudnn_on_gpu": {"b": true}, "leakyrelu_alpha": {"f": 0.2}, "epsilon": {"f": 0.0}, "T": {"type": "DT_FLOAT"}, "explicit_paddings": {"list": {}}, "dilations": {"list": {"i": ["1", "1", "1", "1"]}}}}, {"name": "StatefulPartitionedCall/sequential_1/MobileNetV3Large_1/expanded_conv_11_expand_bn_1/batchnorm/add_1", "op": "_FusedConv2D", "input": ["StatefulPartitionedCall/sequential_1/MobileNetV3Large_1/expanded_conv_10_project_bn_1/batchnorm/add_1", "StatefulPartitionedCall/sequential_1/MobileNetV3Large_1/expanded_conv_11_expand_1/convolution/merged_input", "StatefulPartitionedCall/sequential_1/MobileNetV3Large_1/expanded_conv_11_expand_bn_1/batchnorm/sub"], "device": "/device:CPU:0", "attr": {"num_host_args": {"i": "0"}, "data_format": {"s": "TkhXQw=="}, "filter_format": {"s": "SFdJTw=="}, "fused_ops": {"list": {"s": ["Qmlhc0FkZA=="]}}, "num_args": {"i": "1"}, "strides": {"list": {"i": ["1", "1", "1", "1"]}}, "TArgs": {"list": {"type": ["DT_FLOAT"]}}, "padding": {"s": "U0FNRQ=="}, "use_cudnn_on_gpu": {"b": true}, "leakyrelu_alpha": {"f": 0.2}, "epsilon": {"f": 0.0}, "T": {"type": "DT_FLOAT"}, "explicit_paddings": {"list": {}}, "dilations": {"list": {"i": ["1", "1", "1", "1"]}}}}, {"name": "StatefulPartitionedCall/sequential_1/MobileNetV3Large_1/activation_11_1/truediv", "op": "Mul", "input": ["ConstantFolding/StatefulPartitionedCall/sequential_1/MobileNetV3Large_1/activation_11_1/truediv_recip", "StatefulPartitionedCall/sequential_1/MobileNetV3Large_1/expanded_conv_11_expand_bn_1/batchnorm/add_1"], "attr": {"_grappler_ArithmeticOptimizer_MinimizeBroadcasts": {"b": true}, "T": {"type": "DT_FLOAT"}}}, {"name": "StatefulPartitionedCall/sequential_1/MobileNetV3Large_1/activation_11_1/add", "op": "AddV2", "input": ["StatefulPartitionedCall/sequential_1/MobileNetV3Large_1/expanded_conv_11_expand_bn_1/batchnorm/add_1", "StatefulPartitionedCall/sequential_1/MobileNetV3Large_1/activation_11_1/Const"], "attr": {"T": {"type": "DT_FLOAT"}}}, {"name": "StatefulPartitionedCall/sequential_1/MobileNetV3Large_1/activation_11_1/Relu6", "op": "Relu6", "input": ["StatefulPartitionedCall/sequential_1/MobileNetV3Large_1/activation_11_1/add"], "attr": {"T": {"type": "DT_FLOAT"}}}, {"name": "StatefulPartitionedCall/sequential_1/MobileNetV3Large_1/activation_11_1/mul", "op": "Mul", "input": ["StatefulPartitionedCall/sequential_1/MobileNetV3Large_1/activation_11_1/truediv", "StatefulPartitionedCall/sequential_1/MobileNetV3Large_1/activation_11_1/Relu6"], "attr": {"_grappler_ArithmeticOptimizer_MinimizeBroadcasts": {"b": true}, "T": {"type": "DT_FLOAT"}}}, {"name": "StatefulPartitionedCall/sequential_1/MobileNetV3Large_1/expanded_conv_11_depthwise_1/depthwise", "op": "DepthwiseConv2dNative", "input": ["StatefulPartitionedCall/sequential_1/MobileNetV3Large_1/activation_11_1/mul", "StatefulPartitionedCall/sequential_1/MobileNetV3Large_1/expanded_conv_11_depthwise_1/depthwise/ReadVariableOp"], "attr": {"padding": {"s": "U0FNRQ=="}, "data_format": {"s": "TkhXQw=="}, "T": {"type": "DT_FLOAT"}, "explicit_paddings": {"list": {}}, "dilations": {"list": {"i": ["1", "1", "1", "1"]}}, "strides": {"list": {"i": ["1", "1", "1", "1"]}}}}, {"name": "StatefulPartitionedCall/sequential_1/MobileNetV3Large_1/expanded_conv_11_depthwise_bn_1/batchnorm/mul_1", "op": "Mul", "input": ["StatefulPartitionedCall/sequential_1/MobileNetV3Large_1/expanded_conv_11_depthwise_1/depthwise", "StatefulPartitionedCall/sequential_1/MobileNetV3Large_1/expanded_conv_11_depthwise_bn_1/batchnorm/mul"], "attr": {"T": {"type": "DT_FLOAT"}}}, {"name": "StatefulPartitionedCall/sequential_1/MobileNetV3Large_1/expanded_conv_11_depthwise_bn_1/batchnorm/add_1", "op": "AddV2", "input": ["StatefulPartitionedCall/sequential_1/MobileNetV3Large_1/expanded_conv_11_depthwise_bn_1/batchnorm/mul_1", "StatefulPartitionedCall/sequential_1/MobileNetV3Large_1/expanded_conv_11_depthwise_bn_1/batchnorm/sub"], "attr": {"T": {"type": "DT_FLOAT"}}}, {"name": "StatefulPartitionedCall/sequential_1/MobileNetV3Large_1/activation_12_1/truediv", "op": "Mul", "input": ["ConstantFolding/StatefulPartitionedCall/sequential_1/MobileNetV3Large_1/activation_12_1/truediv_recip", "StatefulPartitionedCall/sequential_1/MobileNetV3Large_1/expanded_conv_11_depthwise_bn_1/batchnorm/add_1"], "attr": {"_grappler_ArithmeticOptimizer_MinimizeBroadcasts": {"b": true}, "T": {"type": "DT_FLOAT"}}}, {"name": "StatefulPartitionedCall/sequential_1/MobileNetV3Large_1/activation_12_1/add", "op": "AddV2", "input": ["StatefulPartitionedCall/sequential_1/MobileNetV3Large_1/expanded_conv_11_depthwise_bn_1/batchnorm/add_1", "StatefulPartitionedCall/sequential_1/MobileNetV3Large_1/activation_12_1/Const"], "attr": {"T": {"type": "DT_FLOAT"}}}, {"name": "StatefulPartitionedCall/sequential_1/MobileNetV3Large_1/activation_12_1/Relu6", "op": "Relu6", "input": ["StatefulPartitionedCall/sequential_1/MobileNetV3Large_1/activation_12_1/add"], "attr": {"T": {"type": "DT_FLOAT"}}}, {"name": "StatefulPartitionedCall/sequential_1/MobileNetV3Large_1/activation_12_1/mul", "op": "Mul", "input": ["StatefulPartitionedCall/sequential_1/MobileNetV3Large_1/activation_12_1/truediv", "StatefulPartitionedCall/sequential_1/MobileNetV3Large_1/activation_12_1/Relu6"], "attr": {"_grappler_ArithmeticOptimizer_MinimizeBroadcasts": {"b": true}, "T": {"type": "DT_FLOAT"}}}, {"name": "StatefulPartitionedCall/sequential_1/MobileNetV3Large_1/expanded_conv_11_squeeze_excite_avg_pool_1/Mean", "op": "Mean", "input": ["StatefulPartitionedCall/sequential_1/MobileNetV3Large_1/activation_12_1/mul", "StatefulPartitionedCall/sequential_1/MobileNetV3Large_1/expanded_conv_11_squeeze_excite_avg_pool_1/Mean/reduction_indices"], "attr": {"T": {"type": "DT_FLOAT"}, "Tidx": {"type": "DT_INT32"}, "keep_dims": {"b": true}}}, {"name": "StatefulPartitionedCall/sequential_1/MobileNetV3Large_1/expanded_conv_11_squeeze_excite_relu_1/Relu", "op": "_FusedConv2D", "input": ["StatefulPartitionedCall/sequential_1/MobileNetV3Large_1/expanded_conv_11_squeeze_excite_avg_pool_1/Mean", "StatefulPartitionedCall/sequential_1/MobileNetV3Large_1/expanded_conv_11_squeeze_excite_conv_1/convolution/ReadVariableOp", "StatefulPartitionedCall/sequential_1/MobileNetV3Large_1/expanded_conv_11_squeeze_excite_conv_1/Squeeze"], "device": "/device:CPU:0", "attr": {"num_host_args": {"i": "0"}, "data_format": {"s": "TkhXQw=="}, "filter_format": {"s": "SFdJTw=="}, "strides": {"list": {"i": ["1", "1", "1", "1"]}}, "num_args": {"i": "1"}, "fused_ops": {"list": {"s": ["Qmlhc0FkZA==", "UmVsdQ=="]}}, "TArgs": {"list": {"type": ["DT_FLOAT"]}}, "padding": {"s": "U0FNRQ=="}, "use_cudnn_on_gpu": {"b": true}, "leakyrelu_alpha": {"f": 0.2}, "epsilon": {"f": 0.0}, "T": {"type": "DT_FLOAT"}, "explicit_paddings": {"list": {}}, "dilations": {"list": {"i": ["1", "1", "1", "1"]}}}}, {"name": "StatefulPartitionedCall/sequential_1/MobileNetV3Large_1/expanded_conv_11_squeeze_excite_conv_1_2/BiasAdd", "op": "_FusedConv2D", "input": ["StatefulPartitionedCall/sequential_1/MobileNetV3Large_1/expanded_conv_11_squeeze_excite_relu_1/Relu", "StatefulPartitionedCall/sequential_1/MobileNetV3Large_1/expanded_conv_11_squeeze_excite_conv_1_2/convolution/ReadVariableOp", "StatefulPartitionedCall/sequential_1/MobileNetV3Large_1/expanded_conv_11_squeeze_excite_conv_1_2/Squeeze"], "device": "/device:CPU:0", "attr": {"num_host_args": {"i": "0"}, "data_format": {"s": "TkhXQw=="}, "filter_format": {"s": "SFdJTw=="}, "fused_ops": {"list": {"s": ["Qmlhc0FkZA=="]}}, "num_args": {"i": "1"}, "strides": {"list": {"i": ["1", "1", "1", "1"]}}, "TArgs": {"list": {"type": ["DT_FLOAT"]}}, "padding": {"s": "U0FNRQ=="}, "use_cudnn_on_gpu": {"b": true}, "leakyrelu_alpha": {"f": 0.2}, "epsilon": {"f": 0.0}, "T": {"type": "DT_FLOAT"}, "explicit_paddings": {"list": {}}, "dilations": {"list": {"i": ["1", "1", "1", "1"]}}}}, {"name": "StatefulPartitionedCall/sequential_1/MobileNetV3Large_1/Add_4", "op": "AddV2", "input": ["StatefulPartitionedCall/sequential_1/MobileNetV3Large_1/expanded_conv_11_squeeze_excite_conv_1_2/BiasAdd", "StatefulPartitionedCall/sequential_1/MobileNetV3Large_1/Const_8"], "attr": {"T": {"type": "DT_FLOAT"}}}, {"name": "StatefulPartitionedCall/sequential_1/MobileNetV3Large_1/re_lu_15_1/Relu6", "op": "Relu6", "input": ["StatefulPartitionedCall/sequential_1/MobileNetV3Large_1/Add_4"], "attr": {"T": {"type": "DT_FLOAT"}}}, {"name": "StatefulPartitionedCall/sequential_1/MobileNetV3Large_1/Mul_4", "op": "Mul", "input": ["StatefulPartitionedCall/sequential_1/MobileNetV3Large_1/Const_9", "StatefulPartitionedCall/sequential_1/MobileNetV3Large_1/re_lu_15_1/Relu6"], "attr": {"_grappler_ArithmeticOptimizer_MinimizeBroadcasts": {"b": true}, "T": {"type": "DT_FLOAT"}}}, {"name": "StatefulPartitionedCall/sequential_1/MobileNetV3Large_1/expanded_conv_11_squeeze_excite_mul_1/Mul", "op": "Mul", "input": ["StatefulPartitionedCall/sequential_1/MobileNetV3Large_1/Mul_4", "StatefulPartitionedCall/sequential_1/MobileNetV3Large_1/activation_12_1/mul"], "attr": {"_grappler_ArithmeticOptimizer_MinimizeBroadcasts": {"b": true}, "T": {"type": "DT_FLOAT"}}}, {"name": "StatefulPartitionedCall/sequential_1/MobileNetV3Large_1/expanded_conv_11_project_bn_1/batchnorm/mul_1", "op": "Conv2D", "input": ["StatefulPartitionedCall/sequential_1/MobileNetV3Large_1/expanded_conv_11_squeeze_excite_mul_1/Mul", "StatefulPartitionedCall/sequential_1/MobileNetV3Large_1/expanded_conv_11_project_1/convolution/merged_input"], "device": "/device:CPU:0", "attr": {"padding": {"s": "U0FNRQ=="}, "data_format": {"s": "TkhXQw=="}, "strides": {"list": {"i": ["1", "1", "1", "1"]}}, "use_cudnn_on_gpu": {"b": true}, "T": {"type": "DT_FLOAT"}, "explicit_paddings": {"list": {}}, "dilations": {"list": {"i": ["1", "1", "1", "1"]}}}}, {"name": "StatefulPartitionedCall/sequential_1/MobileNetV3Large_1/expanded_conv_11_add_1/ArithmeticOptimizer/AddOpsRewrite_Leaf_1_Add", "op": "AddN", "input": ["StatefulPartitionedCall/sequential_1/MobileNetV3Large_1/expanded_conv_10_project_bn_1/batchnorm/add_1", "StatefulPartitionedCall/sequential_1/MobileNetV3Large_1/expanded_conv_11_project_bn_1/batchnorm/mul_1"], "attr": {"N": {"i": "2"}, "T": {"type": "DT_FLOAT"}, "_grappler_ArithmeticOptimizer_AddOpsRewriteStage": {"b": true}}}, {"name": "StatefulPartitionedCall/sequential_1/MobileNetV3Large_1/expanded_conv_11_add_1/ArithmeticOptimizer/AddOpsRewrite_Add", "op": "AddV2", "input": ["StatefulPartitionedCall/sequential_1/MobileNetV3Large_1/expanded_conv_11_project_bn_1/batchnorm/sub", "StatefulPartitionedCall/sequential_1/MobileNetV3Large_1/expanded_conv_11_add_1/ArithmeticOptimizer/AddOpsRewrite_Leaf_1_Add"], "attr": {"T": {"type": "DT_FLOAT"}, "_grappler_ArithmeticOptimizer_AddOpsRewriteStage": {"b": true}}}, {"name": "StatefulPartitionedCall/sequential_1/MobileNetV3Large_1/expanded_conv_12_expand_bn_1/batchnorm/add_1", "op": "_FusedConv2D", "input": ["StatefulPartitionedCall/sequential_1/MobileNetV3Large_1/expanded_conv_11_add_1/ArithmeticOptimizer/AddOpsRewrite_Add", "StatefulPartitionedCall/sequential_1/MobileNetV3Large_1/expanded_conv_12_expand_1/convolution/merged_input", "StatefulPartitionedCall/sequential_1/MobileNetV3Large_1/expanded_conv_12_expand_bn_1/batchnorm/sub"], "device": "/device:CPU:0", "attr": {"num_host_args": {"i": "0"}, "data_format": {"s": "TkhXQw=="}, "filter_format": {"s": "SFdJTw=="}, "strides": {"list": {"i": ["1", "1", "1", "1"]}}, "num_args": {"i": "1"}, "fused_ops": {"list": {"s": ["Qmlhc0FkZA=="]}}, "TArgs": {"list": {"type": ["DT_FLOAT"]}}, "padding": {"s": "U0FNRQ=="}, "use_cudnn_on_gpu": {"b": true}, "leakyrelu_alpha": {"f": 0.2}, "epsilon": {"f": 0.0}, "T": {"type": "DT_FLOAT"}, "explicit_paddings": {"list": {}}, "dilations": {"list": {"i": ["1", "1", "1", "1"]}}}}, {"name": "StatefulPartitionedCall/sequential_1/MobileNetV3Large_1/activation_13_1/truediv", "op": "Mul", "input": ["ConstantFolding/StatefulPartitionedCall/sequential_1/MobileNetV3Large_1/activation_13_1/truediv_recip", "StatefulPartitionedCall/sequential_1/MobileNetV3Large_1/expanded_conv_12_expand_bn_1/batchnorm/add_1"], "attr": {"_grappler_ArithmeticOptimizer_MinimizeBroadcasts": {"b": true}, "T": {"type": "DT_FLOAT"}}}, {"name": "StatefulPartitionedCall/sequential_1/MobileNetV3Large_1/activation_13_1/add", "op": "AddV2", "input": ["StatefulPartitionedCall/sequential_1/MobileNetV3Large_1/expanded_conv_12_expand_bn_1/batchnorm/add_1", "StatefulPartitionedCall/sequential_1/MobileNetV3Large_1/activation_13_1/Const"], "attr": {"T": {"type": "DT_FLOAT"}}}, {"name": "StatefulPartitionedCall/sequential_1/MobileNetV3Large_1/activation_13_1/Relu6", "op": "Relu6", "input": ["StatefulPartitionedCall/sequential_1/MobileNetV3Large_1/activation_13_1/add"], "attr": {"T": {"type": "DT_FLOAT"}}}, {"name": "StatefulPartitionedCall/sequential_1/MobileNetV3Large_1/activation_13_1/mul", "op": "Mul", "input": ["StatefulPartitionedCall/sequential_1/MobileNetV3Large_1/activation_13_1/truediv", "StatefulPartitionedCall/sequential_1/MobileNetV3Large_1/activation_13_1/Relu6"], "attr": {"_grappler_ArithmeticOptimizer_MinimizeBroadcasts": {"b": true}, "T": {"type": "DT_FLOAT"}}}, {"name": "StatefulPartitionedCall/sequential_1/MobileNetV3Large_1/expanded_conv_12_depthwise_pad_1/Pad", "op": "Pad", "input": ["StatefulPartitionedCall/sequential_1/MobileNetV3Large_1/activation_13_1/mul", "StatefulPartitionedCall/sequential_1/MobileNetV3Large_1/expanded_conv_12_depthwise_pad_1/Const"], "attr": {"Tpaddings": {"type": "DT_INT32"}, "T": {"type": "DT_FLOAT"}}}, {"name": "StatefulPartitionedCall/sequential_1/MobileNetV3Large_1/expanded_conv_12_depthwise_1/depthwise", "op": "DepthwiseConv2dNative", "input": ["StatefulPartitionedCall/sequential_1/MobileNetV3Large_1/expanded_conv_12_depthwise_pad_1/Pad", "StatefulPartitionedCall/sequential_1/MobileNetV3Large_1/expanded_conv_12_depthwise_1/depthwise/ReadVariableOp"], "attr": {"padding": {"s": "VkFMSUQ="}, "data_format": {"s": "TkhXQw=="}, "T": {"type": "DT_FLOAT"}, "explicit_paddings": {"list": {}}, "dilations": {"list": {"i": ["1", "1", "1", "1"]}}, "strides": {"list": {"i": ["1", "2", "2", "1"]}}}}, {"name": "StatefulPartitionedCall/sequential_1/MobileNetV3Large_1/expanded_conv_12_depthwise_bn_1/batchnorm/mul_1", "op": "Mul", "input": ["StatefulPartitionedCall/sequential_1/MobileNetV3Large_1/expanded_conv_12_depthwise_1/depthwise", "StatefulPartitionedCall/sequential_1/MobileNetV3Large_1/expanded_conv_12_depthwise_bn_1/batchnorm/mul"], "attr": {"T": {"type": "DT_FLOAT"}}}, {"name": "StatefulPartitionedCall/sequential_1/MobileNetV3Large_1/expanded_conv_12_depthwise_bn_1/batchnorm/add_1", "op": "AddV2", "input": ["StatefulPartitionedCall/sequential_1/MobileNetV3Large_1/expanded_conv_12_depthwise_bn_1/batchnorm/mul_1", "StatefulPartitionedCall/sequential_1/MobileNetV3Large_1/expanded_conv_12_depthwise_bn_1/batchnorm/sub"], "attr": {"T": {"type": "DT_FLOAT"}}}, {"name": "StatefulPartitionedCall/sequential_1/MobileNetV3Large_1/activation_14_1/truediv", "op": "Mul", "input": ["ConstantFolding/StatefulPartitionedCall/sequential_1/MobileNetV3Large_1/activation_14_1/truediv_recip", "StatefulPartitionedCall/sequential_1/MobileNetV3Large_1/expanded_conv_12_depthwise_bn_1/batchnorm/add_1"], "attr": {"_grappler_ArithmeticOptimizer_MinimizeBroadcasts": {"b": true}, "T": {"type": "DT_FLOAT"}}}, {"name": "StatefulPartitionedCall/sequential_1/MobileNetV3Large_1/activation_14_1/add", "op": "AddV2", "input": ["StatefulPartitionedCall/sequential_1/MobileNetV3Large_1/expanded_conv_12_depthwise_bn_1/batchnorm/add_1", "StatefulPartitionedCall/sequential_1/MobileNetV3Large_1/activation_14_1/Const"], "attr": {"T": {"type": "DT_FLOAT"}}}, {"name": "StatefulPartitionedCall/sequential_1/MobileNetV3Large_1/activation_14_1/Relu6", "op": "Relu6", "input": ["StatefulPartitionedCall/sequential_1/MobileNetV3Large_1/activation_14_1/add"], "attr": {"T": {"type": "DT_FLOAT"}}}, {"name": "StatefulPartitionedCall/sequential_1/MobileNetV3Large_1/activation_14_1/mul", "op": "Mul", "input": ["StatefulPartitionedCall/sequential_1/MobileNetV3Large_1/activation_14_1/truediv", "StatefulPartitionedCall/sequential_1/MobileNetV3Large_1/activation_14_1/Relu6"], "attr": {"_grappler_ArithmeticOptimizer_MinimizeBroadcasts": {"b": true}, "T": {"type": "DT_FLOAT"}}}, {"name": "StatefulPartitionedCall/sequential_1/MobileNetV3Large_1/expanded_conv_12_squeeze_excite_avg_pool_1/Mean", "op": "Mean", "input": ["StatefulPartitionedCall/sequential_1/MobileNetV3Large_1/activation_14_1/mul", "StatefulPartitionedCall/sequential_1/MobileNetV3Large_1/expanded_conv_12_squeeze_excite_avg_pool_1/Mean/reduction_indices"], "attr": {"T": {"type": "DT_FLOAT"}, "Tidx": {"type": "DT_INT32"}, "keep_dims": {"b": true}}}, {"name": "StatefulPartitionedCall/sequential_1/MobileNetV3Large_1/expanded_conv_12_squeeze_excite_relu_1/Relu", "op": "_FusedConv2D", "input": ["StatefulPartitionedCall/sequential_1/MobileNetV3Large_1/expanded_conv_12_squeeze_excite_avg_pool_1/Mean", "StatefulPartitionedCall/sequential_1/MobileNetV3Large_1/expanded_conv_12_squeeze_excite_conv_1/convolution/ReadVariableOp", "StatefulPartitionedCall/sequential_1/MobileNetV3Large_1/expanded_conv_12_squeeze_excite_conv_1/Squeeze"], "device": "/device:CPU:0", "attr": {"num_host_args": {"i": "0"}, "data_format": {"s": "TkhXQw=="}, "filter_format": {"s": "SFdJTw=="}, "fused_ops": {"list": {"s": ["Qmlhc0FkZA==", "UmVsdQ=="]}}, "num_args": {"i": "1"}, "strides": {"list": {"i": ["1", "1", "1", "1"]}}, "TArgs": {"list": {"type": ["DT_FLOAT"]}}, "padding": {"s": "U0FNRQ=="}, "use_cudnn_on_gpu": {"b": true}, "leakyrelu_alpha": {"f": 0.2}, "epsilon": {"f": 0.0}, "T": {"type": "DT_FLOAT"}, "explicit_paddings": {"list": {}}, "dilations": {"list": {"i": ["1", "1", "1", "1"]}}}}, {"name": "StatefulPartitionedCall/sequential_1/MobileNetV3Large_1/expanded_conv_12_squeeze_excite_conv_1_2/BiasAdd", "op": "_FusedConv2D", "input": ["StatefulPartitionedCall/sequential_1/MobileNetV3Large_1/expanded_conv_12_squeeze_excite_relu_1/Relu", "StatefulPartitionedCall/sequential_1/MobileNetV3Large_1/expanded_conv_12_squeeze_excite_conv_1_2/convolution/ReadVariableOp", "StatefulPartitionedCall/sequential_1/MobileNetV3Large_1/expanded_conv_12_squeeze_excite_conv_1_2/Squeeze"], "device": "/device:CPU:0", "attr": {"num_host_args": {"i": "0"}, "data_format": {"s": "TkhXQw=="}, "filter_format": {"s": "SFdJTw=="}, "strides": {"list": {"i": ["1", "1", "1", "1"]}}, "num_args": {"i": "1"}, "fused_ops": {"list": {"s": ["Qmlhc0FkZA=="]}}, "TArgs": {"list": {"type": ["DT_FLOAT"]}}, "padding": {"s": "U0FNRQ=="}, "use_cudnn_on_gpu": {"b": true}, "leakyrelu_alpha": {"f": 0.2}, "epsilon": {"f": 0.0}, "T": {"type": "DT_FLOAT"}, "explicit_paddings": {"list": {}}, "dilations": {"list": {"i": ["1", "1", "1", "1"]}}}}, {"name": "StatefulPartitionedCall/sequential_1/MobileNetV3Large_1/Add_5", "op": "AddV2", "input": ["StatefulPartitionedCall/sequential_1/MobileNetV3Large_1/expanded_conv_12_squeeze_excite_conv_1_2/BiasAdd", "StatefulPartitionedCall/sequential_1/MobileNetV3Large_1/Const_10"], "attr": {"T": {"type": "DT_FLOAT"}}}, {"name": "StatefulPartitionedCall/sequential_1/MobileNetV3Large_1/re_lu_16_1/Relu6", "op": "Relu6", "input": ["StatefulPartitionedCall/sequential_1/MobileNetV3Large_1/Add_5"], "attr": {"T": {"type": "DT_FLOAT"}}}, {"name": "StatefulPartitionedCall/sequ…
ormat": {"s": "TkhXQw=="}, "use_cudnn_on_gpu": {"b": true}, "strides": {"list": {"i": ["1", "1", "1", "1"]}}, "T": {"type": "DT_FLOAT"}, "explicit_paddings": {"list": {}}, "dilations": {"list": {"i": ["1", "1", "1", "1"]}}}}, {"name": "StatefulPartitionedCall/sequential_1/MobileNetV3Large_1/expanded_conv_13_add_1/ArithmeticOptimizer/AddOpsRewrite_Leaf_1_Add", "op": "AddN", "input": ["StatefulPartitionedCall/sequential_1/MobileNetV3Large_1/expanded_conv_12_project_bn_1/batchnorm/add_1", "StatefulPartitionedCall/sequential_1/MobileNetV3Large_1/expanded_conv_13_project_bn_1/batchnorm/mul_1"], "attr": {"N": {"i": "2"}, "T": {"type": "DT_FLOAT"}, "_grappler_ArithmeticOptimizer_AddOpsRewriteStage": {"b": true}}}, {"name": "StatefulPartitionedCall/sequential_1/MobileNetV3Large_1/expanded_conv_13_add_1/ArithmeticOptimizer/AddOpsRewrite_Add", "op": "AddV2", "input": ["StatefulPartitionedCall/sequential_1/MobileNetV3Large_1/expanded_conv_13_project_bn_1/batchnorm/sub", "StatefulPartitionedCall/sequential_1/MobileNetV3Large_1/expanded_conv_13_add_1/ArithmeticOptimizer/AddOpsRewrite_Leaf_1_Add"], "attr": {"T": {"type": "DT_FLOAT"}, "_grappler_ArithmeticOptimizer_AddOpsRewriteStage": {"b": true}}}, {"name": "StatefulPartitionedCall/sequential_1/MobileNetV3Large_1/expanded_conv_14_expand_bn_1/batchnorm/add_1", "op": "_FusedConv2D", "input": ["StatefulPartitionedCall/sequential_1/MobileNetV3Large_1/expanded_conv_13_add_1/ArithmeticOptimizer/AddOpsRewrite_Add", "StatefulPartitionedCall/sequential_1/MobileNetV3Large_1/expanded_conv_14_expand_1/convolution/merged_input", "StatefulPartitionedCall/sequential_1/MobileNetV3Large_1/expanded_conv_14_expand_bn_1/batchnorm/sub"], "device": "/device:CPU:0", "attr": {"num_host_args": {"i": "0"}, "data_format": {"s": "TkhXQw=="}, "filter_format": {"s": "SFdJTw=="}, "fused_ops": {"list": {"s": ["Qmlhc0FkZA=="]}}, "num_args": {"i": "1"}, "strides": {"list": {"i": ["1", "1", "1", "1"]}}, "TArgs": {"list": {"type": ["DT_FLOAT"]}}, "padding": {"s": "U0FNRQ=="}, "use_cudnn_on_gpu": {"b": true}, "leakyrelu_alpha": {"f": 0.2}, "epsilon": {"f": 0.0}, "T": {"type": "DT_FLOAT"}, "explicit_paddings": {"list": {}}, "dilations": {"list": {"i": ["1", "1", "1", "1"]}}}}, {"name": "StatefulPartitionedCall/sequential_1/MobileNetV3Large_1/activation_17_1/truediv", "op": "Mul", "input": ["ConstantFolding/StatefulPartitionedCall/sequential_1/MobileNetV3Large_1/activation_17_1/truediv_recip", "StatefulPartitionedCall/sequential_1/MobileNetV3Large_1/expanded_conv_14_expand_bn_1/batchnorm/add_1"], "attr": {"_grappler_ArithmeticOptimizer_MinimizeBroadcasts": {"b": true}, "T": {"type": "DT_FLOAT"}}}, {"name": "StatefulPartitionedCall/sequential_1/MobileNetV3Large_1/activation_17_1/add", "op": "AddV2", "input": ["StatefulPartitionedCall/sequential_1/MobileNetV3Large_1/expanded_conv_14_expand_bn_1/batchnorm/add_1", "StatefulPartitionedCall/sequential_1/MobileNetV3Large_1/activation_17_1/Const"], "attr": {"T": {"type": "DT_FLOAT"}}}, {"name": "StatefulPartitionedCall/sequential_1/MobileNetV3Large_1/activation_17_1/Relu6", "op": "Relu6", "input": ["StatefulPartitionedCall/sequential_1/MobileNetV3Large_1/activation_17_1/add"], "attr": {"T": {"type": "DT_FLOAT"}}}, {"name": "StatefulPartitionedCall/sequential_1/MobileNetV3Large_1/activation_17_1/mul", "op": "Mul", "input": ["StatefulPartitionedCall/sequential_1/MobileNetV3Large_1/activation_17_1/truediv", "StatefulPartitionedCall/sequential_1/MobileNetV3Large_1/activation_17_1/Relu6"], "attr": {"_grappler_ArithmeticOptimizer_MinimizeBroadcasts": {"b": true}, "T": {"type": "DT_FLOAT"}}}, {"name": "StatefulPartitionedCall/sequential_1/MobileNetV3Large_1/expanded_conv_14_depthwise_1/depthwise", "op": "DepthwiseConv2dNative", "input": ["StatefulPartitionedCall/sequential_1/MobileNetV3Large_1/activation_17_1/mul", "StatefulPartitionedCall/sequential_1/MobileNetV3Large_1/expanded_conv_14_depthwise_1/depthwise/ReadVariableOp"], "attr": {"padding": {"s": "U0FNRQ=="}, "data_format": {"s": "TkhXQw=="}, "T": {"type": "DT_FLOAT"}, "explicit_paddings": {"list": {}}, "dilations": {"list": {"i": ["1", "1", "1", "1"]}}, "strides": {"list": {"i": ["1", "1", "1", "1"]}}}}, {"name": "StatefulPartitionedCall/sequential_1/MobileNetV3Large_1/expanded_conv_14_depthwise_bn_1/batchnorm/mul_1", "op": "Mul", "input": ["StatefulPartitionedCall/sequential_1/MobileNetV3Large_1/expanded_conv_14_depthwise_1/depthwise", "StatefulPartitionedCall/sequential_1/MobileNetV3Large_1/expanded_conv_14_depthwise_bn_1/batchnorm/mul"], "attr": {"T": {"type": "DT_FLOAT"}}}, {"name": "StatefulPartitionedCall/sequential_1/MobileNetV3Large_1/expanded_conv_14_depthwise_bn_1/batchnorm/add_1", "op": "AddV2", "input": ["StatefulPartitionedCall/sequential_1/MobileNetV3Large_1/expanded_conv_14_depthwise_bn_1/batchnorm/mul_1", "StatefulPartitionedCall/sequential_1/MobileNetV3Large_1/expanded_conv_14_depthwise_bn_1/batchnorm/sub"], "attr": {"T": {"type": "DT_FLOAT"}}}, {"name": "StatefulPartitionedCall/sequential_1/MobileNetV3Large_1/activation_18_1/truediv", "op": "Mul", "input": ["ConstantFolding/StatefulPartitionedCall/sequential_1/MobileNetV3Large_1/activation_18_1/truediv_recip", "StatefulPartitionedCall/sequential_1/MobileNetV3Large_1/expanded_conv_14_depthwise_bn_1/batchnorm/add_1"], "attr": {"_grappler_ArithmeticOptimizer_MinimizeBroadcasts": {"b": true}, "T": {"type": "DT_FLOAT"}}}, {"name": "StatefulPartitionedCall/sequential_1/MobileNetV3Large_1/activation_18_1/add", "op": "AddV2", "input": ["StatefulPartitionedCall/sequential_1/MobileNetV3Large_1/expanded_conv_14_depthwise_bn_1/batchnorm/add_1", "StatefulPartitionedCall/sequential_1/MobileNetV3Large_1/activation_18_1/Const"], "attr": {"T": {"type": "DT_FLOAT"}}}, {"name": "StatefulPartitionedCall/sequential_1/MobileNetV3Large_1/activation_18_1/Relu6", "op": "Relu6", "input": ["StatefulPartitionedCall/sequential_1/MobileNetV3Large_1/activation_18_1/add"], "attr": {"T": {"type": "DT_FLOAT"}}}, {"name": "StatefulPartitionedCall/sequential_1/MobileNetV3Large_1/activation_18_1/mul", "op": "Mul", "input": ["StatefulPartitionedCall/sequential_1/MobileNetV3Large_1/activation_18_1/truediv", "StatefulPartitionedCall/sequential_1/MobileNetV3Large_1/activation_18_1/Relu6"], "attr": {"_grappler_ArithmeticOptimizer_MinimizeBroadcasts": {"b": true}, "T": {"type": "DT_FLOAT"}}}, {"name": "StatefulPartitionedCall/sequential_1/MobileNetV3Large_1/expanded_conv_14_squeeze_excite_avg_pool_1/Mean", "op": "Mean", "input": ["StatefulPartitionedCall/sequential_1/MobileNetV3Large_1/activation_18_1/mul", "StatefulPartitionedCall/sequential_1/MobileNetV3Large_1/expanded_conv_14_squeeze_excite_avg_pool_1/Mean/reduction_indices"], "attr": {"Tidx": {"type": "DT_INT32"}, "T": {"type": "DT_FLOAT"}, "keep_dims": {"b": true}}}, {"name": "StatefulPartitionedCall/sequential_1/MobileNetV3Large_1/expanded_conv_14_squeeze_excite_relu_1/Relu", "op": "_FusedConv2D", "input": ["StatefulPartitionedCall/sequential_1/MobileNetV3Large_1/expanded_conv_14_squeeze_excite_avg_pool_1/Mean", "StatefulPartitionedCall/sequential_1/MobileNetV3Large_1/expanded_conv_14_squeeze_excite_conv_1/convolution/ReadVariableOp", "StatefulPartitionedCall/sequential_1/MobileNetV3Large_1/expanded_conv_14_squeeze_excite_conv_1/Squeeze"], "device": "/device:CPU:0", "attr": {"num_host_args": {"i": "0"}, "data_format": {"s": "TkhXQw=="}, "filter_format": {"s": "SFdJTw=="}, "strides": {"list": {"i": ["1", "1", "1", "1"]}}, "num_args": {"i": "1"}, "fused_ops": {"list": {"s": ["Qmlhc0FkZA==", "UmVsdQ=="]}}, "TArgs": {"list": {"type": ["DT_FLOAT"]}}, "padding": {"s": "U0FNRQ=="}, "use_cudnn_on_gpu": {"b": true}, "leakyrelu_alpha": {"f": 0.2}, "epsilon": {"f": 0.0}, "T": {"type": "DT_FLOAT"}, "explicit_paddings": {"list": {}}, "dilations": {"list": {"i": ["1", "1", "1", "1"]}}}}, {"name": "StatefulPartitionedCall/sequential_1/MobileNetV3Large_1/expanded_conv_14_squeeze_excite_conv_1_2/BiasAdd", "op": "_FusedConv2D", "input": ["StatefulPartitionedCall/sequential_1/MobileNetV3Large_1/expanded_conv_14_squeeze_excite_relu_1/Relu", "StatefulPartitionedCall/sequential_1/MobileNetV3Large_1/expanded_conv_14_squeeze_excite_conv_1_2/convolution/ReadVariableOp", "StatefulPartitionedCall/sequential_1/MobileNetV3Large_1/expanded_conv_14_squeeze_excite_conv_1_2/Squeeze"], "device": "/device:CPU:0", "attr": {"num_host_args": {"i": "0"}, "data_format": {"s": "TkhXQw=="}, "filter_format": {"s": "SFdJTw=="}, "fused_ops": {"list": {"s": ["Qmlhc0FkZA=="]}}, "num_args": {"i": "1"}, "strides": {"list": {"i": ["1", "1", "1", "1"]}}, "TArgs": {"list": {"type": ["DT_FLOAT"]}}, "padding": {"s": "U0FNRQ=="}, "use_cudnn_on_gpu": {"b": true}, "leakyrelu_alpha": {"f": 0.2}, "epsilon": {"f": 0.0}, "T": {"type": "DT_FLOAT"}, "explicit_paddings": {"list": {}}, "dilations": {"list": {"i": ["1", "1", "1", "1"]}}}}, {"name": "StatefulPartitionedCall/sequential_1/MobileNetV3Large_1/Add_7", "op": "AddV2", "input": ["StatefulPartitionedCall/sequential_1/MobileNetV3Large_1/expanded_conv_14_squeeze_excite_conv_1_2/BiasAdd", "StatefulPartitionedCall/sequential_1/MobileNetV3Large_1/Const_14"], "attr": {"T": {"type": "DT_FLOAT"}}}, {"name": "StatefulPartitionedCall/sequential_1/MobileNetV3Large_1/re_lu_18_1/Relu6", "op": "Relu6", "input": ["StatefulPartitionedCall/sequential_1/MobileNetV3Large_1/Add_7"], "attr": {"T": {"type": "DT_FLOAT"}}}, {"name": "StatefulPartitionedCall/sequential_1/MobileNetV3Large_1/Mul_7", "op": "Mul", "input": ["StatefulPartitionedCall/sequential_1/MobileNetV3Large_1/Const_15", "StatefulPartitionedCall/sequential_1/MobileNetV3Large_1/re_lu_18_1/Relu6"], "attr": {"_grappler_ArithmeticOptimizer_MinimizeBroadcasts": {"b": true}, "T": {"type": "DT_FLOAT"}}}, {"name": "StatefulPartitionedCall/sequential_1/MobileNetV3Large_1/expanded_conv_14_squeeze_excite_mul_1/Mul", "op": "Mul", "input": ["StatefulPartitionedCall/sequential_1/MobileNetV3Large_1/Mul_7", "StatefulPartitionedCall/sequential_1/MobileNetV3Large_1/activation_18_1/mul"], "attr": {"_grappler_ArithmeticOptimizer_MinimizeBroadcasts": {"b": true}, "T": {"type": "DT_FLOAT"}}}, {"name": "StatefulPartitionedCall/sequential_1/MobileNetV3Large_1/expanded_conv_14_project_bn_1/batchnorm/mul_1", "op": "Conv2D", "input": ["StatefulPartitionedCall/sequential_1/MobileNetV3Large_1/expanded_conv_14_squeeze_excite_mul_1/Mul", "StatefulPartitionedCall/sequential_1/MobileNetV3Large_1/expanded_conv_14_project_1/convolution/merged_input"], "device": "/device:CPU:0", "attr": {"padding": {"s": "U0FNRQ=="}, "data_format": {"s": "TkhXQw=="}, "strides": {"list": {"i": ["1", "1", "1", "1"]}}, "use_cudnn_on_gpu": {"b": true}, "T": {"type": "DT_FLOAT"}, "explicit_paddings": {"list": {}}, "dilations": {"list": {"i": ["1", "1", "1", "1"]}}}}, {"name": "StatefulPartitionedCall/sequential_1/MobileNetV3Large_1/expanded_conv_14_add_1/ArithmeticOptimizer/AddOpsRewrite_Leaf_1_Add", "op": "AddN", "input": ["StatefulPartitionedCall/sequential_1/MobileNetV3Large_1/expanded_conv_13_add_1/ArithmeticOptimizer/AddOpsRewrite_Add", "StatefulPartitionedCall/sequential_1/MobileNetV3Large_1/expanded_conv_14_project_bn_1/batchnorm/mul_1"], "attr": {"N": {"i": "2"}, "T": {"type": "DT_FLOAT"}, "_grappler_ArithmeticOptimizer_AddOpsRewriteStage": {"b": true}}}, {"name": "StatefulPartitionedCall/sequential_1/MobileNetV3Large_1/expanded_conv_14_add_1/ArithmeticOptimizer/AddOpsRewrite_Add", "op": "AddV2", "input": ["StatefulPartitionedCall/sequential_1/MobileNetV3Large_1/expanded_conv_14_project_bn_1/batchnorm/sub", "StatefulPartitionedCall/sequential_1/MobileNetV3Large_1/expanded_conv_14_add_1/ArithmeticOptimizer/AddOpsRewrite_Leaf_1_Add"], "attr": {"T": {"type": "DT_FLOAT"}, "_grappler_ArithmeticOptimizer_AddOpsRewriteStage": {"b": true}}}, {"name": "StatefulPartitionedCall/sequential_1/MobileNetV3Large_1/conv_1_bn_1/batchnorm/add_1", "op": "_FusedConv2D", "input": ["StatefulPartitionedCall/sequential_1/MobileNetV3Large_1/expanded_conv_14_add_1/ArithmeticOptimizer/AddOpsRewrite_Add", "StatefulPartitionedCall/sequential_1/MobileNetV3Large_1/conv_1_2/convolution/merged_input", "StatefulPartitionedCall/sequential_1/MobileNetV3Large_1/conv_1_bn_1/batchnorm/sub"], "device": "/device:CPU:0", "attr": {"num_host_args": {"i": "0"}, "data_format": {"s": "TkhXQw=="}, "filter_format": {"s": "SFdJTw=="}, "fused_ops": {"list": {"s": ["Qmlhc0FkZA=="]}}, "num_args": {"i": "1"}, "strides": {"list": {"i": ["1", "1", "1", "1"]}}, "TArgs": {"list": {"type": ["DT_FLOAT"]}}, "padding": {"s": "U0FNRQ=="}, "use_cudnn_on_gpu": {"b": true}, "leakyrelu_alpha": {"f": 0.2}, "epsilon": {"f": 0.0}, "T": {"type": "DT_FLOAT"}, "explicit_paddings": {"list": {}}, "dilations": {"list": {"i": ["1", "1", "1", "1"]}}}}, {"name": "StatefulPartitionedCall/sequential_1/MobileNetV3Large_1/activation_19_1/truediv", "op": "Mul", "input": ["ConstantFolding/StatefulPartitionedCall/sequential_1/MobileNetV3Large_1/activation_19_1/truediv_recip", "StatefulPartitionedCall/sequential_1/MobileNetV3Large_1/conv_1_bn_1/batchnorm/add_1"], "attr": {"_grappler_ArithmeticOptimizer_MinimizeBroadcasts": {"b": true}, "T": {"type": "DT_FLOAT"}}}, {"name": "StatefulPartitionedCall/sequential_1/MobileNetV3Large_1/activation_19_1/add", "op": "AddV2", "input": ["StatefulPartitionedCall/sequential_1/MobileNetV3Large_1/conv_1_bn_1/batchnorm/add_1", "StatefulPartitionedCall/sequential_1/MobileNetV3Large_1/activation_19_1/Const"], "attr": {"T": {"type": "DT_FLOAT"}}}, {"name": "StatefulPartitionedCall/sequential_1/MobileNetV3Large_1/activation_19_1/Relu6", "op": "Relu6", "input": ["StatefulPartitionedCall/sequential_1/MobileNetV3Large_1/activation_19_1/add"], "attr": {"T": {"type": "DT_FLOAT"}}}, {"name": "StatefulPartitionedCall/sequential_1/MobileNetV3Large_1/activation_19_1/mul", "op": "Mul", "input": ["StatefulPartitionedCall/sequential_1/MobileNetV3Large_1/activation_19_1/truediv", "StatefulPartitionedCall/sequential_1/MobileNetV3Large_1/activation_19_1/Relu6"], "attr": {"_grappler_ArithmeticOptimizer_MinimizeBroadcasts": {"b": true}, "T": {"type": "DT_FLOAT"}}}, {"name": "StatefulPartitionedCall/sequential_1/conv2d_1/Relu", "op": "_FusedConv2D", "input": ["StatefulPartitionedCall/sequential_1/MobileNetV3Large_1/activation_19_1/mul", "StatefulPartitionedCall/sequential_1/conv2d_1/convolution/ReadVariableOp", "StatefulPartitionedCall/sequential_1/conv2d_1/Squeeze"], "device": "/device:CPU:0", "attr": {"num_host_args": {"i": "0"}, "data_format": {"s": "TkhXQw=="}, "filter_format": {"s": "SFdJTw=="}, "fused_ops": {"list": {"s": ["Qmlhc0FkZA==", "UmVsdQ=="]}}, "num_args": {"i": "1"}, "strides": {"list": {"i": ["1", "1", "1", "1"]}}, "TArgs": {"list": {"type": ["DT_FLOAT"]}}, "padding": {"s": "U0FNRQ=="}, "use_cudnn_on_gpu": {"b": true}, "leakyrelu_alpha": {"f": 0.2}, "epsilon": {"f": 0.0}, "T": {"type": "DT_FLOAT"}, "explicit_paddings": {"list": {}}, "dilations": {"list": {"i": ["1", "1", "1", "1"]}}}}, {"name": "StatefulPartitionedCall/sequential_1/max_pooling2d_1/MaxPool2d", "op": "MaxPool", "input": ["StatefulPartitionedCall/sequential_1/conv2d_1/Relu"], "attr": {"padding": {"s": "VkFMSUQ="}, "data_format": {"s": "TkhXQw=="}, "T": {"type": "DT_FLOAT"}, "explicit_paddings": {"list": {}}, "ksize": {"list": {"i": ["1", "2", "2", "1"]}}, "strides": {"list": {"i": ["1", "2", "2", "1"]}}}}, {"name": "StatefulPartitionedCall/sequential_1/conv2d_1_2/Relu", "op": "_FusedConv2D", "input": ["StatefulPartitionedCall/sequential_1/max_pooling2d_1/MaxPool2d", "StatefulPartitionedCall/sequential_1/conv2d_1_2/convolution/ReadVariableOp", "StatefulPartitionedCall/sequential_1/conv2d_1_2/Squeeze"], "device": "/device:CPU:0", "attr": {"num_host_args": {"i": "0"}, "data_format": {"s": "TkhXQw=="}, "filter_format": {"s": "SFdJTw=="}, "fused_ops": {"list": {"s": ["Qmlhc0FkZA==", "UmVsdQ=="]}}, "num_args": {"i": "1"}, "strides": {"list": {"i": ["1", "1", "1", "1"]}}, "TArgs": {"list": {"type": ["DT_FLOAT"]}}, "padding": {"s": "U0FNRQ=="}, "use_cudnn_on_gpu": {"b": true}, "leakyrelu_alpha": {"f": 0.2}, "epsilon": {"f": 0.0}, "T": {"type": "DT_FLOAT"}, "explicit_paddings": {"list": {}}, "dilations": {"list": {"i": ["1", "1", "1", "1"]}}}}, {"name": "StatefulPartitionedCall/sequential_1/max_pooling2d_1_2/MaxPool2d", "op": "MaxPool", "input": ["StatefulPartitionedCall/sequential_1/conv2d_1_2/Relu"], "attr": {"padding": {"s": "VkFMSUQ="}, "data_format": {"s": "TkhXQw=="}, "T": {"type": "DT_FLOAT"}, "explicit_paddings": {"list": {}}, "ksize": {"list": {"i": ["1", "2", "2", "1"]}}, "strides": {"list": {"i": ["1", "2", "2", "1"]}}}}, {"name": "StatefulPartitionedCall/sequential_1/flatten_1/Reshape", "op": "Reshape", "input": ["StatefulPartitionedCall/sequential_1/max_pooling2d_1_2/MaxPool2d", "StatefulPartitionedCall/sequential_1/flatten_1/Reshape/shape"], "attr": {"T": {"type": "DT_FLOAT"}, "Tshape": {"type": "DT_INT32"}}}, {"name": "StatefulPartitionedCall/sequential_1/dense_1/BiasAdd", "op": "_FusedMatMul", "input": ["StatefulPartitionedCall/sequential_1/flatten_1/Reshape", "StatefulPartitionedCall/sequential_1/dense_1/Cast/ReadVariableOp", "StatefulPartitionedCall/sequential_1/dense_1/BiasAdd/ReadVariableOp"], "device": "/device:CPU:0", "attr": {"transpose_a": {"b": false}, "transpose_b": {"b": false}, "fused_ops": {"list": {"s": ["Qmlhc0FkZA=="]}}, "num_args": {"i": "1"}, "leakyrelu_alpha": {"f": 0.2}, "epsilon": {"f": 0.0}, "T": {"type": "DT_FLOAT"}}}, {"name": "StatefulPartitionedCall/sequential_1/dense_1/Softmax", "op": "Softmax", "input": ["StatefulPartitionedCall/sequential_1/dense_1/BiasAdd"], "attr": {"T": {"type": "DT_FLOAT"}}}, {"name": "Identity", "op": "Identity", "input": ["StatefulPartitionedCall/sequential_1/dense_1/Softmax"], "attr": {"T": {"type": "DT_FLOAT"}}}], "library": {}, "versions": {"producer": 1994}}, "weightsManifest": [{"paths": ["group1-shard1of4.bin", "group1-shard2of4.bin", "group1-shard3of4.bin", "group1-shard4of4.bin"], "weights": [{"name": "ConstantFolding/StatefulPartitionedCall/sequential_1/MobileNetV3Large_1/activation_19_1/truediv_recip", "shape": [], "dtype": "float32"}, {"name": "StatefulPartitionedCall/sequential_1/MobileNetV3Large_1/expanded_conv_14_project_bn_1/batchnorm/sub", "shape": [160], "dtype": "float32"}, {"name": "StatefulPartitionedCall/sequential_1/MobileNetV3Large_1/Const_15", "shape": [], "dtype": "float32"}, {"name": "StatefulPartitionedCall/sequential_1/MobileNetV3Large_1/expanded_conv_14_squeeze_excite_avg_pool_1/Mean/reduction_indices", "shape": [2], "dtype": "int32"}, {"name": "StatefulPartitionedCall/sequential_1/MobileNetV3Large_1/expanded_conv_14_squeeze_excite_conv_1/convolution/ReadVariableOp", "shape": [1, 1, 960, 240], "dtype": "float32"}, {"name": "StatefulPartitionedCall/sequential_1/MobileNetV3Large_1/expanded_conv_14_squeeze_excite_conv_1/Squeeze", "shape": [240], "dtype": "float32"}, {"name": "StatefulPartitionedCall/sequential_1/MobileNetV3Large_1/expanded_conv_14_squeeze_excite_conv_1_2/convolution/ReadVariableOp", "shape": [1, 1, 240, 960], "dtype": "float32"}, {"name": "StatefulPartitionedCall/sequential_1/MobileNetV3Large_1/expanded_conv_14_squeeze_excite_conv_1_2/Squeeze", "shape": [960], "dtype": "float32"}, {"name": "StatefulPartitionedCall/sequential_1/MobileNetV3Large_1/Const_14", "shape": [], "dtype": "float32"}, {"name": "ConstantFolding/StatefulPartitionedCall/sequential_1/MobileNetV3Large_1/activation_18_1/truediv_recip", "shape": [], "dtype": "float32"}, {"name": "ConstantFolding/StatefulPartitionedCall/sequential_1/MobileNetV3Large_1/activation_17_1/truediv_recip", "shape": [], "dtype": "float32"}, {"name": "StatefulPartitionedCall/sequential_1/MobileNetV3Large_1/expanded_conv_13_project_bn_1/batchnorm/sub", "shape": [160], "dtype": "float32"}, {"name": "StatefulPartitionedCall/sequential_1/MobileNetV3Large_1/Const_13", "shape": [], "dtype": "float32"}, {"name": "StatefulPartitionedCall/sequential_1/MobileNetV3Large_1/expanded_conv_13_squeeze_excite_avg_pool_1/Mean/reduction_indices", "shape": [2], "dtype": "int32"}, {"name": "StatefulPartitionedCall/sequential_1/MobileNetV3Large_1/expanded_conv_13_squeeze_excite_conv_1/convolution/ReadVariableOp", "shape": [1, 1, 960, 240], "dtype": "float32"}, {"name": "StatefulPartitionedCall/sequential_1/MobileNetV3Large_1/expanded_conv_13_squeeze_excite_conv_1/Squeeze", "shape": [240], "dtype": "float32"}, {"name": "StatefulPartitionedCall/sequential_1/MobileNetV3Large_1/expanded_conv_13_squeeze_excite_conv_1_2/convolution/ReadVariableOp", "shape": [1, 1, 240, 960], "dtype": "float32"}, {"name": "StatefulPartitionedCall/sequential_1/MobileNetV3Large_1/expanded_conv_13_squeeze_excite_conv_1_2/Squeeze", "shape": [960], "dtype": "float32"}, {"name": "StatefulPartitionedCall/sequential_1/MobileNetV3Large_1/Const_12", "shape": [], "dtype": "float32"}, {"name": "ConstantFolding/StatefulPartitionedCall/sequential_1/MobileNetV3Large_1/activation_16_1/truediv_recip", "shape": [], "dtype": "float32"}, {"name": "ConstantFolding/StatefulPartitionedCall/sequential_1/MobileNetV3Large_1/activation_15_1/truediv_recip", "shape": [], "dtype": "float32"}, {"name": "StatefulPartitionedCall/sequential_1/MobileNetV3Large_1/Const_11", "shape": [], "dtype": "float32"}, {"name": "StatefulPartitionedCall/sequential_1/MobileNetV3Large_1/expanded_conv_12_squeeze_excite_avg_pool_1/Mean/reduction_indices", "shape": [2], "dtype": "int32"}, {"name": "StatefulPartitionedCall/sequential_1/MobileNetV3Large_1/expanded_conv_12_squeeze_excite_conv_1/convolution/ReadVariableOp", "shape": [1, 1, 672, 168], "dtype": "float32"}, {"name": "StatefulPartitionedCall/sequential_1/MobileNetV3Large_1/expanded_conv_12_squeeze_excite_conv_1/Squeeze", "shape": [168], "dtype": "float32"}, {"name": "StatefulPartitionedCall/sequential_1/MobileNetV3Large_1/expanded_conv_12_squeeze_excite_conv_1_2/convolution/ReadVariableOp", "shape": [1, 1, 168, 672], "dtype": "float32"}, {"name": "StatefulPartitionedCall/sequential_1/MobileNetV3Large_1/expanded_conv_12_squeeze_excite_conv_1_2/Squeeze", "shape": [672], "dtype": "float32"}, {"name": "StatefulPartitionedCall/sequential_1/MobileNetV3Large_1/Const_10", "shape": [], "dtype": "float32"}, {"name": "ConstantFolding/StatefulPartitionedCall/sequential_1/MobileNetV3Large_1/activation_14_1/truediv_recip", "shape": [], "dtype": "float32"}, {"name": "ConstantFolding/StatefulPartitionedCall/sequential_1/MobileNetV3Large_1/activation_13_1/truediv_recip", "shape": [], "dtype": "float32"}, {"name": "StatefulPartitionedCall/sequential_1/MobileNetV3Large_1/expanded_conv_11_project_bn_1/batchnorm/sub", "shape": [112], "dtype": "float32"}, {"name": "StatefulPartitionedCall/sequential_1/MobileNetV3Large_1/Const_9", "shape": [], "dtype": "float32"}, {"name": "StatefulPartitionedCall/sequential_1/MobileNetV3Large_1/expanded_conv_11_squeeze_excite_avg_pool_1/Mean/reduction_indices", "shape": [2], "dtype": "int32"}, {"name": "StatefulPartitionedCall/sequential_1/MobileNetV3Large_1/expanded_conv_11_squeeze_excite_conv_1/convolution/ReadVariableOp", "shape": [1, 1, 672, 168], "dtype": "float32"}, {"name": "StatefulPartitionedCall/sequential_1/MobileNetV3Large_1/expanded_conv_11_squeeze_excite_conv_1/Squeeze", "shape": [168], "dtype": "float32"}, {"name": "StatefulPartitionedCall/sequential_1/MobileNetV3Large_1/expanded_conv_11_squeeze_excite_conv_1_2/convolution/ReadVariableOp", "shape": [1, 1, 168, 672], "dtype": "float32"}, {"name": "StatefulPartitionedCall/sequential_1/MobileNetV3Large_1/expanded_conv_11_squeeze_excite_conv_1_2/Squeeze", "shape": [672], "dtype": "float32"}, {"name": "StatefulPartitionedCall/sequential_1/MobileNetV3Large_1/Const_8", "shape": [], "dtype": "float32"}, {"name": "ConstantFolding/StatefulPartitionedCall/sequential_1/MobileNetV3Large_1/activation_12_1/truediv_recip", "shape": [], "dtype": "float32"}, {"name": "ConstantFolding/StatefulPartitionedCall/sequential_1/MobileNetV3Large_1/activation_11_1/truediv_recip", "shape": [], "dtype": "float32"}, {"name": "StatefulPartitionedCall/sequential_1/MobileNetV3Large_1/Const_7", "shape": [], "dtype": "float32"}, {"name": "StatefulPartitionedCall/sequential_1/MobileNetV3Large_1/expanded_conv_10_squeeze_excite_avg_pool_1/Mean/reduction_indices", "shape": [2], "dtype": "int32"}, {"name": "StatefulPartitionedCall/sequential_1/MobileNetV3Large_1/expanded_conv_10_squeeze_excite_conv_1/convolution/ReadVariableOp", "shape": [1, 1, 480, 120], "dtype": "float32"}, {"name": "StatefulPartitionedCall/sequential_1/MobileNetV3Large_1/expanded_conv_10_squeeze_excite_conv_1/Squeeze", "shape": [120], "dtype": "float32"}, {"name": "StatefulPartitionedCall/sequential_1/MobileNetV3Large_1/expanded_conv_10_squeeze_excite_conv_1_2/convolution/ReadVariableOp", "shape": [1, 1, 120, 480], "dtype": "float32"}, {"name": "StatefulPartitionedCall/sequential_1/MobileNetV3Large_1/expanded_conv_10_squeeze_excite_conv_1_2/Squeeze", "shape": [480], "dtype": "float32"}, {"name": "StatefulPartitionedCall/sequential_1/MobileNetV3Large_1/Const_6", "shape": [], "dtype": "float32"}, {"name": "ConstantFolding/StatefulPartitionedCall/sequential_1/MobileNetV3Large_1/activation_10_1/truediv_recip", "shape": [], "dtype": "float32"}, {"name": "ConstantFolding/StatefulPartitionedCall/sequential_1/MobileNetV3Large_1/activation_9_1/truediv_recip", "shape": [], "dtype": "float32"}, {"name": "StatefulPartitionedCall/sequential_1/MobileNetV3Large_1/expanded_conv_9_project_bn_1/batchnorm/sub", "shape": [80], "dtype": "float32"}, {"name": "ConstantFolding/StatefulPartitionedCall/sequential_1/MobileNetV3Large_1/activation_8_1/truediv_recip", "shape": [], "dtype": "float32"}, {"name": "ConstantFolding/StatefulPartitionedCall/sequential_1/MobileNetV3Large_1/activation_7_1/truediv_recip", "shape": [], "dtype": "float32"}, {"name": "StatefulPartitionedCall/sequential_1/MobileNetV3Large_1/expanded_conv_8_project_bn_1/batchnorm/sub", "shape": [80], "dtype": "float32"}, {"name": "ConstantFolding/StatefulPartitionedCall/sequential_1/MobileNetV3Large_1/activation_6_1/truediv_recip", "shape": [], "dtype": "float32"}, {"name": "ConstantFolding/StatefulPartitionedCall/sequential_1/MobileNetV3Large_1/activation_5_1/truediv_recip", "shape": [], "dtype": "float32"}, {"name": "StatefulPartitionedCall/sequential_1/MobileNetV3Large_1/expanded_conv_7_project_bn_1/batchnorm/sub", "shape": [80], "dtype": "float32"}, {"name": "ConstantFolding/StatefulPartitionedCall/sequential_1/MobileNetV3Large_1/activation_4_1/truediv_recip", "shape": [], "dtype": "float32"}, {"name": "ConstantFolding/StatefulPartitionedCall/sequential_1/MobileNetV3Large_1/activation_3_1/truediv_recip", "shape": [], "dtype": "float32"}, {"name": "ConstantFolding/StatefulPartitionedCall/sequential_1/MobileNetV3Large_1/activation_2_1/truediv_recip", "shape": [], "dtype": "float32"}, {"name": "ConstantFolding/StatefulPartitionedCall/sequential_1/MobileNetV3Large_1/activation_1_2/truediv_recip", "shape": [], "dtype": "float32"}, {"name": "StatefulPartitionedCall/sequential_1/MobileNetV3Large_1/expanded_conv_5_project_bn_1/batchnorm/sub", "shape": [40], "dtype": "float32"}, {"name": "StatefulPartitionedCall/sequential_1/MobileNetV3Large_1/Const_5", "shape": [], "dtype": "float32"}, {"name": "StatefulPartitionedCall/sequential_1/MobileNetV3Large_1/expanded_conv_5_squeeze_excite_avg_pool_1/Mean/reduction_indices", "shape": [2], "dtype": "int32"}, {"name": "StatefulPartitionedCall/sequential_1/MobileNetV3Large_1/expanded_conv_5_squeeze_excite_conv_1/convolution/ReadVariableOp", "shape": [1, 1, 120, 32], "dtype": "float32"}, {"name": "StatefulPartitionedCall/sequential_1/MobileNetV3Large_1/expanded_conv_5_squeeze_excite_conv_1/Squeeze", "shape": [32], "dtype": "float32"}, {"name": "StatefulPartitionedCall/sequential_1/MobileNetV3Large_1/expanded_conv_5_squeeze_excite_conv_1_2/convolution/ReadVariableOp", "shape": [1, 1, 32, 120], "dtype": "float32"}, {"name": "StatefulPartitionedCall/sequential_1/MobileNetV3Large_1/expanded_conv_5_squeeze_excite_conv_1_2/Squeeze", "shape": [120], "dtype": "float32"}, {"name": "StatefulPartitionedCall/sequential_1/MobileNetV3Large_1/Const_4", "shape": [], "dtype": "float32"}, {"name": "StatefulPartitionedCall/sequential_1/MobileNetV3Large_1/expanded_conv_4_project_bn_1/batchnorm/sub", "shape": [40], "dtype": "float32"}, {"name": "StatefulPartitionedCall/sequential_1/MobileNetV3Large_1/Const_3", "shape": [], "dtype": "float32"}, {"name": "StatefulPartitionedCall/sequential_1/MobileNetV3Large_1/expanded_conv_4_squeeze_excite_avg_pool_1/Mean/reduction_indices", "shape": [2], "dtype": "int32"}, {"name": "StatefulPartitionedCall/sequential_1/MobileNetV3Large_1/expanded_conv_4_squeeze_excite_conv_1/convolution/ReadVariableOp", "shape": [1, 1, 120, 32], "dtype": "float32"}, {"name": "StatefulPartitionedCall/sequential_1/MobileNetV3Large_1/expanded_conv_4_squeeze_excite_conv_1/Squeeze", "shape": [32], "dtype": "float32"}, {"name": "StatefulPartitionedCall/sequential_1/MobileNetV3Large_1/expanded_conv_4_squeeze_excite_conv_1_2/convolution/ReadVariableOp", "shape": [1, 1, 32, 120], "dtype": "float32"}, {"name": "StatefulPartitionedCall/sequential_1/MobileNetV3Large_1/expanded_conv_4_squeeze_excite_conv_1_2/Squeeze", "shape": [120], "dtype": "float32"}, {"name": "StatefulPartitionedCall/sequential_1/MobileNetV3Large_1/Const_2", "shape": [], "dtype": "float32"}, {"name": "StatefulPartitionedCall/sequential_1/MobileNetV3Large_1/Const_1", "shape": [], "dtype": "float32"}, {"name": "StatefulPartitionedCall/sequential_1/MobileNetV3Large_1/expanded_conv_3_squeeze_excite_avg_pool_1/Mean/reduction_indices", "shape": [2], "dtype": "int32"}, {"name": "StatefulPartitionedCall/sequential_1/MobileNetV3Large_1/expanded_conv_3_squeeze_excite_conv_1/convolution/ReadVariableOp", "shape": [1, 1, 72, 24], "dtype": "float32"}, {"name": "StatefulPartitionedCall/sequential_1/MobileNetV3Large_1/expanded_conv_3_squeeze_excite_conv_1/Squeeze", "shape": [24], "dtype": "float32"}, {"name": "StatefulPartitionedCall/sequential_1/MobileNetV3Large_1/expanded_conv_3_squeeze_excite_conv_1_2/convolution/ReadVariableOp", "shape": [1, 1, 24, 72], "dtype": "float32"}, {"name": "StatefulPartitionedCall/sequential_1/MobileNetV3Large_1/expanded_conv_3_squeeze_excite_conv_1_2/Squeeze", "shape": [72], "dtype": "float32"}, {"name": "StatefulPartitionedCall/sequential_1/MobileNetV3Large_1/Const", "shape": [], "dtype": "float32"}, {"name": "StatefulPartitionedCall/sequential_1/MobileNetV3Large_1/expanded_conv_2_project_bn_1/batchnorm/sub", "shape": [24], "dtype": "float32"}, {"name": "StatefulPartitionedCall/sequential_1/MobileNetV3Large_1/expanded_conv_project_bn_1/batchnorm/sub", "shape": [16], "dtype": "float32"}, {"name": "ConstantFolding/StatefulPartitionedCall/sequential_1/MobileNetV3Large_1/activation_1/truediv_recip", "shape": [], "dtype": "float32"}, {"name": "StatefulPartitionedCall/sequential_1/MobileNetV3Large_1/rescaling_1/Cast/x", "shape": [], "dtype": "float32"}, {"name": "StatefulPartitionedCall/sequential_1/MobileNetV3Large_1/rescaling_1/Cast_1/x", "shape": [], "dtype": "float32"}, {"name": "StatefulPartitionedCall/sequential_1/MobileNetV3Large_1/conv_1/convolution/merged_input", "shape": [3, 3, 3, 16], "dtype": "float32"}, {"name": "StatefulPartitionedCall/sequential_1/MobileNetV3Large_1/conv_bn_1/batchnorm/sub", "shape": [16], "dtype": "float32"}, {"name": "StatefulPartitionedCall/sequential_1/MobileNetV3Large_1/activation_1/Const", "shape": [], "dtype": "float32"}, {"name": "StatefulPartitionedCall/sequential_1/MobileNetV3Large_1/expanded_conv_depthwise_1/depthwise/ReadVariableOp", "shape": [3, 3, 16, 1], "dtype": "float32"}, {"name": "StatefulPartitionedCall/sequential_1/MobileNetV3Large_1/expanded_conv_depthwise_bn_1/batchnorm/mul", "shape": [16], "dtype": "float32"}, {"name": "StatefulPartitionedCall/sequential_1/MobileNetV3Large_1/expanded_conv_depthwise_bn_1/batchnorm/sub", "shape": [16], "dtype": "float32"}, {"name": "StatefulPartitionedCall/sequential_1/MobileNetV3Large_1/expanded_conv_project_1/convolution/merged_input", "shape": [1, 1, 16, 16], "dtype": "float32"}, {"name": "StatefulPartitionedCall/sequential_1/MobileNetV3Large_1/expanded_conv_1_expand_1/convolution/merged_input", "shape": [1, 1, 16, 64], "dtype": "float32"}, {"name": "StatefulPartitionedCall/sequential_1/MobileNetV3Large_1/expanded_conv_1_expand_bn_1/batchnorm/sub", "shape": [64], "dtype": "float32"}, {"name": "StatefulPartitionedCall/sequential_1/MobileNetV3Large_1/expanded_conv_1_depthwise_pad_1/Const", "shape": [4, 2], "dtype": "int32"}, {"name": "StatefulPartitionedCall/sequential_1/MobileNetV3Large_1/expanded_conv_1_depthwise_1/depthwise/ReadVariableOp", "shape": [3, 3, 64, 1], "dtype": "float32"}, {"name": "StatefulPartitionedCall/sequential_1/MobileNetV3Large_1/expanded_conv_1_depthwise_bn_1/batchnorm/mul", "shape": [64], "dtype": "float32"}, {"name": "StatefulPartitionedCall/sequential_1/MobileNetV3Large_1/expanded_conv_1_depthwise_bn_1/batchnorm/sub", "shape": [64], "dtype": "float32"}, {"name": "StatefulPartitionedCall/sequential_1/MobileNetV3Large_1/expanded_conv_1_project_1/convolution/merged_input", "shape": [1, 1, 64, 24], "dtype": "float32"}, {"name": "StatefulPartitionedCall/sequential_1/MobileNetV3Large_1/expanded_conv_1_project_bn_1/batchnorm/sub", "shape": [24], "dtype": "float32"}, {"name": "StatefulPartitionedCall/sequential_1/MobileNetV3Large_1/expanded_conv_2_expand_1/convolution/merged_input", "shape": [1, 1, 24, 72], "dtype": "float32"}, {"name": "StatefulPartitionedCall/sequential_1/MobileNetV3Large_1/expanded_conv_2_expand_bn_1/batchnorm/sub", "shape": [72], "dtype": "float32"}, {"name": "StatefulPartitionedCall/sequential_1/MobileNetV3Large_1/expanded_conv_2_depthwise_1/depthwise/ReadVariableOp", "shape": [3, 3, 72, 1], "dtype": "float32"}, {"name": "StatefulPartitionedCall/sequential_1/MobileNetV3Large_1/expanded_conv_2_depthwise_bn_1/batchnorm/mul", "shape": [72], "dtype": "float32"}, {"name": "StatefulPartitionedCall/sequential_1/MobileNetV3Large_1/expanded_conv_2_depthwise_bn_1/batchnorm/sub", "shape": [72], "dtype": "float32"}, {"name": "StatefulPartitionedCall/sequential_1/MobileNetV3Large_1/expanded_conv_2_project_1/convolution/merged_input", "shape": [1, 1, 72, 24], "dtype": "float32"}, {"name": "StatefulPartitionedCall/sequential_1/MobileNetV3Large_1/expanded_conv_3_expand_1/convolution/merged_input", "shape": [1, 1, 24, 72], "dtype": "float32"}, {"name": "StatefulPartitionedCall/sequential_1/MobileNetV3Large_1/expanded_conv_3_expand_bn_1/batchnorm/sub", "shape": [72], "dtype": "float32"}, {"name": "StatefulPartitionedCall/sequential_1/MobileNetV3Large_1/expanded_conv_3_depthwise_pad_1/Const", "shape": [4, 2], "dtype": "int32"}, {"name": "StatefulPartitionedCall/sequential_1/MobileNetV3Large_1/expanded_conv_3_depthwise_1/depthwise/ReadVariableOp", "shape": [5, 5, 72, 1], "dtype": "float32"}, {"name": "StatefulPartitionedCall/sequential_1/MobileNetV3Large_1/expanded_conv_3_depthwise_bn_1/batchnorm/mul", "shape": [72], "dtype": "float32"}, {"name": "StatefulPartitionedCall/sequential_1/MobileNetV3Large_1/expanded_conv_3_depthwise_bn_1/batchnorm/sub", "shape": [72], "dtype": "float32"}, {"name": "StatefulPartitionedCall/sequential_1/MobileNetV3Large_1/expanded_conv_3_project_1/convolution/merged_input", "shape": [1, 1, 72, 40], "dtype": "float32"}, {"name": "StatefulPartitionedCall/sequential_1/MobileNetV3Large_1/expanded_conv_3_project_bn_1/batchnorm/sub", "shape": [40], "dtype": "float32"}, {"name": "StatefulPartitionedCall/sequential_1/MobileNetV3Large_1/expanded_conv_4_expand_1/convolution/merged_input", "shape": [1, 1, 40, 120], "dtype": "float32"}, {"name": "StatefulPartitionedCall/sequential_1/MobileNetV3Large_1/expanded_conv_4_expand_bn_1/batchnorm/sub", "shape": [120], "dtype": "float32"}, {"name": "StatefulPartitionedCall/sequential_1/MobileNetV3Large_1/expanded_conv_4_depthwise_1/depthwise/ReadVariableOp", "shape": [5, 5, 120, 1], "dtype": "float32"}, {"name": "StatefulPartitionedCall/sequential_1/MobileNetV3Large_1/expanded_conv_4_depthwise_bn_1/batchnorm/mul", "shape": [120], "dtype": "float32"}, {"name": "StatefulPartitionedCall/sequential_1/MobileNetV3Large_1/expanded_conv_4_depthwise_bn_1/batchnorm/sub", "shape": [120], "dtype": "float32"}, {"name": "StatefulPartitionedCall/sequential_1/MobileNetV3Large_1/expanded_conv_4_project_1/convolution/merged_input", "shape": [1, 1, 120, 40], "dtype": "float32"}, {"name": "StatefulPartitionedCall/sequential_1/MobileNetV3Large_1/expanded_conv_5_expand_1/convolution/merged_input", "shape": [1, 1, 40, 120], "dtype": "float32"}, {"name": "StatefulPartitionedCall/sequential_1/MobileNetV3Large_1/expanded_conv_5_expand_bn_1/batchnorm/sub", "shape": [120], "dtype": "float32"}, {"name": "StatefulPartitionedCall/sequential_1/MobileNetV3Large_1/expanded_conv_5_depthwise_1/depthwise/ReadVariableOp", "shape": [5, 5, 120, 1], "dtype": "float32"}, {"name": "StatefulPartitionedCall/sequential_1/MobileNetV3Large_1/expanded_conv_5_depthwise_bn_1/batchnorm/mul", "shape": [120], "dtype": "float32"}, {"name": "StatefulPartitionedCall/sequential_1/MobileNetV3Large_1/expanded_conv_5_depthwise_bn_1/batchnorm/sub", "shape": [120], "dtype": "float32"}, {"name": "StatefulPartitionedCall/sequential_1/MobileNetV3Large_1/expanded_conv_5_project_1/convolution/merged_input", "shape": [1, 1, 120, 40], "dtype": "float32"}, {"name": "StatefulPartitionedCall/sequential_1/MobileNetV3Large_1/expanded_conv_6_expand_1/convolution/merged_input", "shape": [1, 1, 40, 240], "dtype": "float32"}, {"name": "StatefulPartitionedCall/sequential_1/MobileNetV3Large_1/expanded_conv_6_expand_bn_1/batchnorm/sub", "shape": [240], "dtype": "float32"}, {"name": "StatefulPartitionedCall/sequential_1/MobileNetV3Large_1/activation_1_2/Const", "shape": [], "dtype": "float32"}, {"name": "StatefulPartitionedCall/sequential_1/MobileNetV3Large_1/expanded_conv_6_depthwise_pad_1/Const", "shape": [4, 2], "dtype": "int32"}, {"name": "StatefulPartitionedCall/sequential_1/MobileNetV3Large_1/expanded_conv_6_depthwise_1/depthwise/ReadVariableOp", "shape": [3, 3, 240, 1], "dtype": "float32"}, {"name": "StatefulPartitionedCall/sequential_1/MobileNetV3Large_1/expanded_conv_6_depthwise_bn_1/batchnorm/mul", "shape": [240], "dtype": "float32"}, {"name": "StatefulPartitionedCall/sequential_1/MobileNetV3Large_1/expanded_conv_6_depthwise_bn_1/batchnorm/sub", "shape": [240], "dtype": "float32"}, {"name": "StatefulPartitionedCall/sequential_1/MobileNetV3Large_1/activation_2_1/Const", "shape": [], "dtype": "float32"}, {"name": "StatefulPartitionedCall/sequential_1/MobileNetV3Large_1/expanded_conv_6_project_1/convolution/merged_input", "shape": [1, 1, 240, 80], "dtype": "float32"}, {"name": "StatefulPartitionedCall/sequential_1/MobileNetV3Large_1/expanded_conv_6_project_bn_1/batchnorm/sub", "shape": [80], "dtype": "float32"}, {"name": "StatefulPartitionedCall/sequential_1/MobileNetV3Large_1/expanded_conv_7_expand_1/convolution/merged_input", "shape": [1, 1, 80, 200], "dtype": "float32"}, {"name": "StatefulPartitionedCall/sequential_1/MobileNetV3Large_1/expanded_conv_7_expand_bn_1/batchnorm/sub", "shape": [200], "dtype": "float32"}, {"name": "StatefulPartitionedCall/sequential_1/MobileNetV3Large_1/activation_3_1/Const", "shape": [], "dtype": "float32"}, {"name": "StatefulPartitionedCall/sequential_1/MobileNetV3Large_1/expanded_conv_7_depthwise_1/depthwise/ReadVariableOp", "shape": [3, 3, 200, 1], "dtype": "float32"}, {"name": "StatefulPartitionedCall/sequential_1/MobileNetV3Large_1/expanded_conv_7_depthwise_bn_1/batchnorm/mul", "shape": [200], "dtype": "float32"}, {"name": "StatefulPartitionedCall/sequential_1/MobileNetV3Large_1/expanded_conv_7_depthwise_bn_1/batchnorm/sub", "shape": [200], "dtype": "float32"}, {"name": "StatefulPartitionedCall/sequential_1/MobileNetV3Large_1/activation_4_1/Const", "shape": [], "dtype": "float32"}, {"name": "StatefulPartitionedCall/sequential_1/MobileNetV3Large_1/expanded_conv_7_project_1/convolution/merged_input", "shape": [1, 1, 200, 80], "dtype": "float32"}, {"name": "StatefulPartitionedCall/sequential_1/MobileNetV3Large_1/expanded_conv_8_expand_1/convolution/merged_input", "shape": [1, 1, 80, 184], "dtype": "float32"}, {"name": "StatefulPartitionedCall/sequential_1/MobileNetV3Large_1/expanded_conv_8_expand_bn_1/batchnorm/sub", "shape": [184], "dtype": "float32"}, {"name": "StatefulPartitionedCall/sequential_1/MobileNetV3Large_1/activation_5_1/Const", "shape": [], "dtype": "float32"}, {"name": "StatefulPartitionedCall/sequential_1/MobileNetV3Large_1/expanded_conv_8_depthwise_1/depthwise/ReadVariableOp", "shape": [3, 3, 184, 1], "dtype": "float32"}, {"name": "StatefulPartitionedCall/sequential_1/MobileNetV3Large_1/expanded_conv_8_depthwise_bn_1/batchnorm/mul", "shape": [184], "dtype": "float32"}, {"name": "StatefulPartitionedCall/sequential_1/MobileNetV3Large_1/expanded_conv_8_depthwise_bn_1/batchnorm/sub", "shape": [184], "dtype": "float32"}, {"name": "StatefulPartitionedCall/sequential_1/MobileNetV3Large_1/activation_6_1/Const", "shape": [], "dtype": "float32"}, {"name": "StatefulPartitionedCall/sequential_1/MobileNetV3Large_1/expanded_conv_8_project_1/convolution/merged_input", "shape": [1, 1, 184, 80], "dtype": "float32"}, {"name": "StatefulPartitionedCall/sequential_1/MobileNetV3Large_1/expanded_conv_9_expand_1/convolution/merged_input", "shape": [1, 1, 80, 184], "dtype": "float32"}, {"name": "StatefulPartitionedCall/sequential_1/MobileNetV3Large_1/expanded_conv_9_expand_bn_1/batchnorm/sub", "shape": [184], "dtype": "float32"}, {"name": "StatefulPartitionedCall/sequential_1/MobileNetV3Large_1/activation_7_1/Const", "shape": [], "dtype": "float32"}, {"name": "StatefulPartitionedCall/sequential_1/MobileNetV3Large_1/expanded_conv_9_depthwise_1/depthwise/ReadVariableOp", "shape": [3, 3, 184, 1], "dtype": "float32"}, {"name": "StatefulPartitionedCall/sequential_1/MobileNetV3Large_1/expanded_conv_9_depthwise_bn_1/batchnorm/mul", "shape": [184], "dtype": "float32"}, {"name": "StatefulPartitionedCall/sequential_1/MobileNetV3Large_1/expanded_conv_9_depthwise_bn_1/batchnorm/sub", "shape": [184], "dtype": "float32"}, {"name": "StatefulPartitionedCall/sequential_1/MobileNetV3Large_1/activation_8_1/Const", "shape": [], "dtype": "float32"}, {"name": "StatefulPartitionedCall/sequential_1/MobileNetV3Large_1/expanded_conv_9_project_1/convolution/merged_input", "shape": [1, 1, 184, 80], "dtype": "float32"}, {"name": "StatefulPartitionedCall/sequential_1/MobileNetV3Large_1/expanded_conv_10_expand_1/convolution/merged_input", "shape": [1, 1, 80, 480], "dtype": "float32"}, {"name": "StatefulPartitionedCall/sequential_1/MobileNetV3Large_1/expanded_conv_10_expand_bn_1/batchnorm/sub", "shape": [480], "dtype": "float32"}, {"name": "StatefulPartitionedCall/sequential_1/MobileNetV3Large_1/activation_9_1/Const", "shape": [], "dtype": "float32"}, {"name": "StatefulPartitionedCall/sequential_1/MobileNetV3Large_1/expanded_conv_10_depthwise_1/depthwise/ReadVariableOp", "shape": [3, 3, 480, 1], "dtype": "float32"}, {"name": "StatefulPartitionedCall/sequential_1/MobileNetV3Large_1/expanded_conv_10_depthwise_bn_1/batchnorm/mul", "shape": [480], "dtype": "float32"}, {"name": "StatefulPartitionedCall/sequential_1/MobileNetV3Large_1/expanded_conv_10_depthwise_bn_1/batchnorm/sub", "shape": [480], "dtype": "float32"}, {"name": "StatefulPartitionedCall/sequential_1/MobileNetV3Large_1/activation_10_1/Const", "shape": [], "dtype": "float32"}, {"name": "StatefulPartitionedCall/sequential_1/MobileNetV3Large_1/expanded_conv_10_project_1/convolution/merged_input", "shape": [1, 1, 480, 112], "dtype": "float32"}, {"name": "StatefulPartitionedCall/sequential_1/MobileNetV3Large_1/expanded_conv_10_project_bn_1/batchnorm/sub", "shape": [112], "dtype": "float32"}, {"name": "StatefulPartitionedCall/sequential_1/MobileNetV3Large_1/expanded_conv_11_expand_1/convolution/merged_input", "shape": [1, 1, 112, 672], "dtype": "float32"}, {"name": "StatefulPartitionedCall/sequential_1/MobileNetV3Large_1/expanded_conv_11_expand_bn_1/batchnorm/sub", "shape": [672], "dtype": "float32"}, {"name": "StatefulPartitionedCall/sequential_1/MobileNetV3Large_1/activation_11_1/Const", "shape": [], "dtype": "float32"}, {"name": "StatefulPartitionedCall/sequential_1/MobileNetV3Large_1/expanded_conv_11_depthwise_1/depthwise/ReadVariableOp", "shape": [3, 3, 672, 1], "dtype": "float32"}, {"name": "StatefulPartitionedCall/sequential_1/MobileNetV3Large_1/expanded_conv_11_depthwise_bn_1/batchnorm/mul", "shape": [672], "dtype": "float32"}, {"name": "StatefulPartitionedCall/sequential_1/MobileNetV3Large_1/expanded_conv_11_depthwise_bn_1/batchnorm/sub", "shape": [672], "dtype": "float32"}, {"name": "StatefulPartitionedCall/sequential_1/MobileNetV3Large_1/activation_12_1/Const", "shape": [], "dtype": "float32"}, {"name": "StatefulPartitionedCall/sequential_1/MobileNetV3Large_1/expanded_conv_11_project_1/convolution/merged_input", "shape": [1, 1, 672, 112], "dtype": "float32"}, {"name": "StatefulPartitionedCall/sequential_1/MobileNetV3Large_1/expanded_conv_12_expand_1/convolution/merged_input", "shape": [1, 1, 112, 672], "dtype": "float32"}, {"name": "StatefulPartitionedCall/sequential_1/MobileNetV3Large_1/expanded_conv_12_expand_bn_1/batchnorm/sub", "shape": [672], "dtype": "float32"}, {"name": "StatefulPartitionedCall/sequential_1/MobileNetV3Large_1/activation_13_1/Const", "shape": [], "dtype": "float32"}, {"name": "StatefulPartitionedCall/sequential_1/MobileNetV3Large_1/expanded_conv_12_depthwise_pad_1/Const", "shape": [4, 2], "dtype": "int32"}, {"name": "StatefulPartitionedCall/sequential_1/MobileNetV3Large_1/expanded_conv_12_depthwise_1/depthwise/ReadVariableOp", "shape": [5, 5, 672, 1], "dtype": "float32"}, {"name": "StatefulPartitionedCall/sequential_1/MobileNetV3Large_1/expanded_conv_12_depthwise_bn_1/batchnorm/mul", "shape": [672], "dtype": "float32"}, {"name": "StatefulPartitionedCall/sequential_1/MobileNetV3Large_1/expanded_conv_12_depthwise_bn_1/batchnorm/sub", "shape": [672], "dtype": "float32"}, {"name": "StatefulPartitionedCall/sequential_1/MobileNetV3Large_1/activation_14_1/Const", "shape": [], "dtype": "float32"}, {"name": "StatefulPartitionedCall/sequential_1/MobileNetV3Large_1/expanded_conv_12_project_1/convolution/merged_input", "shape": [1, 1, 672, 160], "dtype": "float32"}, {"name": "StatefulPartitionedCall/sequential_1/MobileNetV3Large_1/expanded_conv_12_project_bn_1/batchnorm/sub", "shape": [160], "dtype": "float32"}, {"name": "StatefulPartitionedCall/sequential_1/MobileNetV3Large_1/expanded_conv_13_expand_1/convolution/merged_input", "shape": [1, 1, 160, 960], "dtype": "float32"}, {"name": "StatefulPartitionedCall/sequential_1/MobileNetV3Large_1/expanded_conv_13_expand_bn_1/batchnorm/sub", "shape": [960], "dtype": "float32"}, {"name": "StatefulPartitionedCall/sequential_1/MobileNetV3Large_1/activation_15_1/Const", "shape": [], "dtype": "float32"}, {"name": "StatefulPartitionedCall/sequential_1/MobileNetV3Large_1/expanded_conv_13_depthwise_1/depthwise/ReadVariableOp", "shape": [5, 5, 960, 1], "dtype": "float32"}, {"name": "StatefulPartitionedCall/sequential_1/MobileNetV3Large_1/expanded_conv_13_depthwise_bn_1/batchnorm/mul", "shape": [960], "dtype": "float32"}, {"name": "StatefulPartitionedCall/sequential_1/MobileNetV3Large_1/expanded_conv_13_depthwise_bn_1/batchnorm/sub", "shape": [960], "dtype": "float32"}, {"name": "StatefulPartitionedCall/sequential_1/MobileNetV3Large_1/activation_16_1/Const", "shape": [], "dtype": "float32"}, {"name": "StatefulPartitionedCall/sequential_1/MobileNetV3Large_1/expanded_conv_13_project_1/convolution/merged_input", "shape": [1, 1, 960, 160], "dtype": "float32"}, {"name": "StatefulPartitionedCall/sequential_1/MobileNetV3Large_1/expanded_conv_14_expand_1/convolution/merged_input", "shape": [1, 1, 160, 960], "dtype": "float32"}, {"name": "StatefulPartitionedCall/sequential_1/MobileNetV3Large_1/expanded_conv_14_expand_bn_1/batchnorm/sub", "shape": [960], "dtype": "float32"}, {"name": "StatefulPartitionedCall/sequential_1/MobileNetV3Large_1/activation_17_1/Const", "shape": [], "dtype": "float32"}, {"name": "StatefulPartitionedCall/sequential_1/MobileNetV3Large_1/expanded_conv_14_depthwise_1/depthwise/ReadVariableOp", "shape": [5, 5, 960, 1], "dtype": "float32"}, {"name": "StatefulPartitionedCall/sequential_1/MobileNetV3Large_1/expanded_conv_14_depthwise_bn_1/batchnorm/mul", "shape": [960], "dtype": "float32"}, {"name": "StatefulPartitionedCall/sequential_1/MobileNetV3Large_1/expanded_conv_14_depthwise_bn_1/batchnorm/sub", "shape": [960], "dtype": "float32"}, {"name": "StatefulPartitionedCall/sequential_1/MobileNetV3Large_1/activation_18_1/Const", "shape": [], "dtype": "float32"}, {"name": "StatefulPartitionedCall/sequential_1/MobileNetV3Large_1/expanded_conv_14_project_1/convolution/merged_input", "shape": [1, 1, 960, 160], "dtype": "float32"}, {"name": "StatefulPartitionedCall/sequential_1/MobileNetV3Large_1/conv_1_2/convolution/merged_input", "shape": [1, 1, 160, 960], "dtype": "float32"}, {"name": "StatefulPartitionedCall/sequential_1/MobileNetV3Large_1/conv_1_bn_1/batchnorm/sub", "shape": [960], "dtype": "float32"}, {"name": "StatefulPartitionedCall/sequential_1/MobileNetV3Large_1/activation_19_1/Const", "shape": [], "dtype": "float32"}, {"name": "StatefulPartitionedCall/sequential_1/conv2d_1/convolution/ReadVariableOp", "shape": [3, 3, 960, 64], "dtype": "float32"}, {"name": "StatefulPartitionedCall/sequential_1/conv2d_1/Squeeze", "shape": [64], "dtype": "float32"}, {"name": "StatefulPartitionedCall/sequential_1/conv2d_1_2/convolution/ReadVariableOp", "shape": [3, 3, 64, 128], "dtype": "float32"}, {"name": "StatefulPartitionedCall/sequential_1/conv2d_1_2/Squeeze", "shape": [128], "dtype": "float32"}, {"name": "StatefulPartitionedCall/sequential_1/flatten_1/Reshape/shape", "shape": [2], "dtype": "int32"}, {"name": "StatefulPartitionedCall/sequential_1/dense_1/Cast/ReadVariableOp", "shape": [128, 14], "dtype": "float32"}, {"name": "StatefulPartitionedCall/sequential_1/dense_1/BiasAdd/ReadVariableOp", "shape": [14], "dtype": "float32"}]}]}